src/GNN/best_model_1.pth (torch, 70662 bytes, 14 tensors)

att_src f4 [1, 3, 16]
0.8734511 0.52936953 0.5426861 -0.65829706 -0.8976489 0.56845254 -1.1864947 0.48823217
0.025263501 -0.056906503 0.68770915 0.5832127 0.2639616 -0.40054733 -0.6731531 -1.1380819
0.5936392 -0.14384994 -0.20857106 -1.1935588 0.329734 -1.2370721 0.19710922 -1.9867165
1.3904908 0.8053274 0.4929543 -2.240302 -1.6959132 0.19293182 -2.0218623 -0.6143794
-0.4705052 -0.06578394 -0.19243002 0.9255562 -0.48454368 -0.75621843 0.68732524 -1.0080874
0.7103236 -1.1586387 0.71357036 -0.71296465 -0.4024403 -0.32754436 -0.49266902 -0.17074218
00000000: 7e9a 5f3f c384 073f 7aed 0a3f 2886 28bf
00000010: 51cc 65bf 1b86 113f 0fdf 97bf 91f9 f93e
00000020: 67f5 ce3c cb16 69bd b50d 303f 6d4d 153f
00000030: fa25 873e 8a14 cdbe c353 2cbf abac 91bf
00000040: bdf8 173f 664d 13be a793 55be 89c6 98bf
00000050: e5d2 a83e 6158 9ebf 00d7 493e ba4c febf
00000060: 9afb b13f f029 4e3f 8264 fc3e 1c61 0fc0
00000070: af13 d9bf eb8f 453e 3166 01c0 f847 1dbf
00000080: 0fe6 f0be bbb9 86bd 600c 45be 40f1 6c3f
00000090: 1c16 f8be 8897 41bf 8cf4 2f3f 0209 81bf
000000a0: c4d7 353f 464e 94bf 8cac 363f da84 36bf
000000b0: a80c cebe e5b3 a7be 1d3f fcbe 0ad7 2ebe

att_dst f4 [1, 3, 16]
-0.02342844 0.049956165 0.036407102 -0.02955243 -0.02112053 0.06933339 -0.024902249 -0.024874348
-0.0007149367 -0.03747028 0.0051829848 0.020299643 -0.04261907 -0.011377881 -0.018350482 -0.019805651
0.12281566 0.39045057 0.3606343 0.42915052 0.34645718 -0.29154786 -0.29155323 0.44904095
-0.41527203 0.34195215 0.09803847 0.37849095 -0.13718504 0.18912183 0.030195408 -0.07784482
0.8177245 0.98122954 0.871789 0.20094126 0.7066035 0.6959725 -0.8275566 -0.044551507
-0.67973715 0.45494446 -0.11903341 0.56900454 0.75962573 -0.3313059 0.6924618 -0.21456261
00000000: 00ed bfbc d69e 4c3d 9d1f 153d f017 f2bc
00000010: f604 adbc aafe 8d3d cdff cbbc 4ac5 cbbc
00000020: 976a 3bba 707a 19bd 07d6 a93b 704b a63c
00000030: 5591 2ebd 4b6a 3abc c053 96bc 763f a2bc
00000040: c786 fb3d 23e9 c73e 0fa5 b83e 9eb9 db3e
00000050: d662 b13e c345 95be 7746 95be b2e8 e53e
00000060: 899e d4be 5a14 af3e 65c8 c83d 91c9 c13e
00000070: 3c7a 0cbe 27a9 413e 5c5c f73c 1b6d 9fbd
00000080: 6556 513f dc31 7b3f 902d 5f3f 8cc3 4d3e
00000090: f8e3 343f 412b 323f c0da 53bf a47b 36bd
000000a0: 4103 2ebf 7bee e83e cac7 f3bd 48aa 113f
000000b0: d576 423f eda0 a9be 2d45 313f 4db6 5bbe

bias f4 [48]
0.22930205 -1.5140952 -0.932541 0.28537583 0.54687524 -1.1698278 0.7903017 0.100954525
-0.0141930515 0.7418787 -0.30238554 -0.31506526 0.15511411 0.1237429 0.4579468 0.13715214
-0.79396194 -0.9167086 -1.1208436 -0.23927703 -0.44631803 0.5417179 1.2052903 -0.004827995
0.257528 -0.45036393 -0.34765923 -0.6170735 0.85959363 -0.6723055 0.93393445 0.66195494
-0.65702724 -0.6376872 -0.6095196 -0.674571 -0.3237579 -0.51608557 0.30627403 -0.005366038
0.13681628 -0.36526135 0.081931464 -0.6130466 -0.6319354 0.42000806 -0.3728072 0.102341086
00000000: 28ce 6a3e dfcd c1bf 02bb 6ebf c81c 923e
00000010: 0400 0c3f ebbc 95bf 3651 4a3f 3fc1 ce3d
00000020: f989 68bc c3eb 3d3f 47d2 9abe 3c50 a1be
00000030: 3cd6 1e3e eb6c fd3d 0178 ea3e 9c71 0c3e
00000040: 1741 4bbf 6aad 6abf ce77 8fbf 0a05 75be
00000050: cc83 e4be 06ae 0a3f f446 9a3f 2834 9ebb
00000060: b6da 833e 1a96 e6be 6400 b2be 87f8 1dbf
00000070: 540e 5c3f 371c 2cbf 5416 6f3f e175 293f
00000080: f032 28bf 783f 23bf 7a09 1cbf afb0 2cbf
00000090: 98c3 a5be 2f1e 04bf f3cf 9c3e 97d5 afbb
000000a0: 9119 0c3e 8903 bbbe afcb a73d 9ff0 1cbf
000000b0: 85c6 21bf 4c0b d73e 96e0 bebe 3498 d13d

weight f4 [48, 6]
-0.20437084 0.16251957 -0.1847015 -0.15606052 1.5036038 -1.4208105 -0.036158368 0.2273172
-0.096154556 0.24922094 1.437679 1.3555713 -0.07227146 0.32514998 0.4187224 -0.45379853
1.3990818 0.6869021 -0.78578573 0.39937115 0.1874119 0.16148902 -1.1836582 0.13949475
0.0007291188 0.62997985 -0.015236264 -0.3349093 -1.8925421 -0.3281476 0.07462376 1.4722583
-0.048722632 -0.045526944 2.0328991 -0.36115038 0.19597615 -0.34154242 0.14343928 0.07560624
-2.6915348 0.010294125 -0.25202373 0.15118004 -0.13526843 -0.4185287 1.0144463 -0.12123357
0.0047807414 -0.005616422 0.0070690876 -0.010704199 -0.003433526 0.0026379651 0.036248375 -0.1331973
0.14115673 -0.092209026 -0.43527415 -2.1921484 0.051089514 -1.0042238 0.3490866 0.30248064
0.92352414 0.13690418 -0.03478247 -0.000472665 0.04141294 0.3519609 0.9682923 -0.4764834
0.22674571 -0.877622 -0.64298314 -0.25039375 0.87808615 0.47342676 -0.009126042 0.11608496
-0.023317905 0.0014514443 -0.6807698 0.08267983 0.04621412 0.44833207 -0.18704072 -0.014816266
-1.3865381 -0.35820666 0.07107299 -0.1348687 -0.23137796 0.010999251 -1.8765782 1.0746783
0.37685353 0.31573957 -0.055635426 0.023346985 -0.6713453 1.2007334 -0.2553867 0.7473896
0.33054784 -0.23411974 0.7819383 0.6745268 0.28530565 0.7951505 -0.13705352 0.39091048
1.2934611 -0.1103888 0.11614698 0.22060247 -0.18252406 -0.42408136 1.9497463 0.048467387
0.106937185 1.3243415 0.040433146 -0.20491469 0.9260742 0.1011666 0.031750094 -2.4176536
0.094446294 -0.069840424 -0.3523971 -0.12944752 0.22180612 -1.0147758 0.16543125 0.12061963
-1.0442508 -0.117482506 -0.15402703 -0.87617 -0.09634409 0.0912608 2.0331428 0.42316765
0.15156373 0.6947794 -0.25354806 0.048017386 -1.7739128 -0.25338653 -0.045828838 1.9266227
0.045479603 0.046039455 0.6740594 0.12834215 -0.009739385 1.1925777 0.24445108 -0.17898914
0.84791887 -1.2180414 0.42919096 -1.7010304 0.08743747 0.47162277 2.328275 -0.42409137
-0.016186055 -2.148037 -0.02836195 -0.22055769 0.5774451 -0.35877952 -0.21849115 0.7852124
-0.22428428 0.43072852 0.5840474 0.15809621 -0.2946163 -2.146335 0.013082423 0.32730505
0.89679635 0.15268613 0.10925269 -0.45299953 -0.16345653 -1.2410268 0.06628412 0.10870916
-0.12052859 1.0507784 0.09287663 0.40638584 0.035039738 0.16415368 0.19558525 1.2828429
0.24768932 -0.18893279 0.581173 -0.20717464 -0.35383067 1.099927 0.34001827 0.06510208
0.3041649 0.21805507 0.38262838 -0.699701 0.09288529 -0.06572153 0.8002318 0.76469445
0.3965664 1.3842553 -0.089292936 -0.35927373 -0.053353343 -0.26504046 -0.020893173 1.0399456
-0.20450392 0.6843734 -0.27005947 0.13926516 0.011794425 -0.25563258 -0.07494324 -0.012513825
0.9288786 -2.6074774 -0.038900584 0.31730223 0.04577305 -0.12854473 -1.9530315 0.7877418
-0.46375522 -1.2616024 -0.3796896 0.23894483 0.83521634 0.45339572 -0.009927246 1.5512668
0.11181516 -0.10791888 -1.2817483 -0.45659474 -0.029682048 -0.75557363 0.39906293 -0.27628803
00000000: 9746 51be 886b 263e 6422 3dbe 54ce 1fbe
00000010: 1776 c03f 1edd b5bf cc1a 14bd d7c5 683e
00000020: aeec c4bd c633 7f3e de05 b83f 5c83 ad3f
00000030: 0f03 94bd 0f7a a63e c862 d63e 4858 e8be
00000040: 1d15 b33f d1d8 2f3f 4129 49bf 607a cc3e
00000050: e8e8 3f3e 615d 253e 1d82 97bf b6d7 0e3e
00000060: 5622 3f3a 5c46 213f 86a1 79bc 3b79 abbe
00000070: d23e f2bf f602 a8be 58d4 983d f672 bc3f
00000080: 6291 47bd 767a 3abd 051b 0240 b4e8 b8be
00000090: f9ad 483e a6de aebe bfe1 123e 72d7 9a3d
000000a0: 1b42 2cc0 b1a8 283c 4109 81be f1ce 1a3e
000000b0: cf83 0abe 6549 d6be 60d9 813f 4e49 f8bd
000000c0: c4a7 9c3b f609 b8bb cea3 e73b aa60 2fbc
000000d0: 0205 61bb b6e1 2c3b 2d79 143d df64 08be
000000e0: 648b 103e 16d8 bcbd 41dc debe 294c 0cc0
000000f0: 3d43 513d 688a 80bf 7bbb b23e bede 9a3e
00000100: 146c 6c3f 9c30 0c3e 1078 0ebd 06d0 f7b9
00000110: 9da0 293d 3834 b43e 01e2 773f a2f5 f3be
00000120: 0730 683e d6ab 60bf 8b9a 24bf 9c33 80be
00000130: 41ca 603f fe64 f23e 6585 15bc f4bd ed3d
00000140: 3105 bfbc 643e be3a ee46 2ebf 0b54 a93d
00000150: 044b 3d3d c88b e53e 9a87 3fbe ecbf 72bc
00000160: 157a b1bf dd66 b7be b78e 913d 051b 0abe
00000170: 58ee 6cbe 3436 343c b733 f0bf 0f8f 893f
00000180: f2f2 c03e 9ea8 a13e f9e1 63bd 2d42 bf3c
00000190: 49dd 2bbf a2b1 993f 0cc2 82be ed54 3f3f
000001a0: 913d a93e 16bd 6fbe 1c2d 483f caad 2c3f
000001b0: 9513 923e fc8e 4b3f c257 0cbe 6b25 c83e
000001c0: 2290 a53f 8613 e2bd 78de ed3d 9de5 613e
000001d0: 96e7 3abe 3121 d9be 4991 f93f bd85 463d
000001e0: e201 db3d 0684 a93f 3a9d 253d 28d5 51be
000001f0: 3313 6d3f 6f30 cf3d 630c 023d d6ba 1ac0
00000200: 0f6d c13d 7f08 8fbd 656d b4be e48d 04be
00000210: 2521 633e 2ce4 81bf cf66 293e 6d07 f73d
00000220: 03aa 85bf ab9a f0bd 43b9 1dbe ad4c 60bf
00000230: 0d50 c5bd f1e6 ba3d 031f 0240 6ea9 d83e
00000240: 8633 1b3e 10dd 313f 0dd1 81be e1ad 443d
00000250: 930f e3bf e1bb 81be 05b7 3bbd 939b f63f
00000260: d248 3a3d de93 3c3d 288f 2c3f 206c 033e
00000270: f191 1fbc 63a6 983f 6251 7a3e ee48 37be
00000280: 3611 593f c8e8 9bbf ebbe db3e 5dbb d9bf
00000290: 6b12 b33d 8a78 f13e 7502 1540 8122 d9be
000002a0: 9e98 84bc 7079 09c0 5257 e8bc e0d9 61be
000002b0: 71d3 133f f3b1 b7be 25bc 5fbe ae03 493f
000002c0: c7aa 65be 7388 dc3e 2184 153f f9e3 213e
000002d0: f3d7 96be 8d5d 09c0 a957 563c 8794 a73e
000002e0: 7294 653f c159 1c3e e0bf df3d 8eef e7be
000002f0: 2661 27be f7d9 9ebf f8bf 873d e8a2 de3d
00000300: b2d7 f6bd e87f 863f 1a36 be3d ce11 d03e
00000310: d485 0f3d e717 283e 8047 483e 3234 a43f
00000320: 45a2 7d3e 9977 41be c1c7 143f 9725 54be
00000330: 4b29 b5be 68ca 8c3f e016 ae3e 3d54 853d
00000340: 80bb 9b3e d449 5f3e dee7 c33e 9b1f 33bf
00000350: a53a be3d 0299 86bd fedb 4c3f 04c3 433f
00000360: c00a cb3e 472f b13f 37df b6bd baf2 b7be
00000370: 0989 5abd 62b3 87be 2928 abbc f01c 853f
00000380: 7a69 51be 1833 2f3f 3c45 8abe 879b 0e3e
00000390: 673d 413c 46e2 82be d77b 99bd c906 4dbc
000003a0: fdca 6d3f e9e0 26c0 3856 1fbd 7075 a23e
000003b0: 867c 3b3d 3ba1 03be f0fc f9bf 72a9 493f
000003c0: 5371 edbe 307c a1bf ad66 c2be f4ad 743e
000003d0: bdd0 553f 7c23 e83e e3a5 22bc e98f c63f
000003e0: 59ff e43d 9304 ddbd 5410 a4bf c9c6 e9be
000003f0: c427 f3bc 466d 41bf fa51 cc3e a075 8dbe

att_src f4 [1, 3, 16]
1.8170365 -1.1706053 -0.6044155 -1.8870045 0.10074894 0.077195495 -0.5972242 -0.72119826
0.31651285 2.5389173 1.4049202 0.70345 -0.6848378 1.5279475 -1.2493954 -0.8543605
-0.13375655 -0.9466098 -0.34377795 -0.00073376653 -0.46346852 0.00965163 0.11914148 0.18471807
-0.24155678 0.0003893235 -0.19231609 -0.21859945 -0.86466795 -0.0016652613 0.09402465 0.9379112
0.7572608 0.016264027 -0.24939176 -0.9253345 0.017839305 -0.008564239 -0.70880294 -1.4737607
0.48276868 -0.013901755 -0.7558356 0.046427432 -0.06123418 -0.07368998 -0.442582 -1.5335034
00000000: a794 e83f 65d6 95bf f9ba 1abf 5d89 f1bf
00000010: 7655 ce3d ac18 9e3d afe3 18bf 73a0 38bf
00000020: f90d a23e 9f7d 2240 6dd4 b33f 4d15 343f
00000030: 8851 2fbf c993 c33f 30ec 9fbf 5fb7 5abf
00000040: 7af7 08be 0555 72bf aa03 b0be 3d5a 40ba
00000050: bf4b edbe df21 1e3c 7300 f43d bc26 3d3e
00000060: a95a 77be 1e1e cc39 82ee 44be 89d8 5fbe
00000070: e15a 5dbf e644 daba ff8f c03d f31a 703f
00000080: d8db 413f 233c 853c 8e60 7fbe b9e2 6cbf
00000090: bc23 923c 0651 0cbc 1c74 35bf 31a4 bcbf
000000a0: 752d f73e 30c4 63bc 717e 41bf b12a 3e3d
000000b0: b1d0 7abd c6ea 96bd 1c9a e2be d749 c4bf

att_dst f4 [1, 3, 16]
-0.1283388 0.013517445 -0.097513996 0.0922111 -0.011114003 0.16907549 -0.2404533 0.107839175
-0.31878302 0.08882905 -0.1524322 1.0191393 -0.41202626 0.16574189 0.1421138 -0.25777575
-0.25099516 -0.4423254 0.0012461658 0.011009945 -0.32203433 -0.21476774 0.5434166 -0.039374698
-0.49832848 -0.001982899 -0.81416136 1.0432539 0.32101065 0.004268257 0.3569844 -0.07622413
0.3349214 0.01965743 0.5469369 0.68461883 0.04617262 0.0023890599 0.24576549 -0.2468918
-0.16964197 -0.008648829 0.30508104 0.24124871 0.48411596 -0.29232574 0.074836954 -0.30837384
00000000: 3f6b 03be 4678 5d3c 6bb5 c7bd 2cd9 bc3d
00000010: 8217 36bc 2022 2d3e 6439 76be c9da dc3d
00000020: 8737 a3be 01ec b53d 3017 1cbe 2873 823f
00000030: 1bf5 d2be 3eb8 293e 4886 113e 2ffb 83be
00000040: 7082 80be 7a78 e2be 6356 a33a 0e63 343c
00000050: afe1 a4be 13ec 5bbe 5a1d 0b3f 5d47 21bd
00000060: e924 ffbe 86f3 01bb e16c 50bf 5889 853f
00000070: 825b a43e bcdc 8b3b a9c6 b63e 661b 9cbd
00000080: d17a ab3e 9e08 a13c 0f04 0c3f 2e43 2f3f
00000090: 801f 3d3d c691 1c3b f3a9 7b3e 34d1 7cbe
000000a0: a0b6 2dbe d1b3 0dbc 9533 9c3e e709 773e
000000b0: 0cde f73e b8ab 95be 1e44 993d 2de3 9dbe

bias f4 [48]
-0.060763877 0.1037515 0.11374494 -0.12544003 -0.06938385 -0.1825228 0.49764743 0.07141182
-0.16892806 -0.055605445 -0.48923242 0.046870448 0.07887114 -0.2795982 -0.68483347 0.2234632
-0.8995546 -0.20152177 -0.21654244 0.00066280185 -0.05216593 -0.109362125 0.09659597 0.29504487
-0.11025381 -0.00092913496 -0.18571027 -0.0033227655 -0.35583794 0.003357345 0.027539644 -0.17343462
0.26382247 -0.013113767 0.4946921 -0.45136207 -0.011558339 0.0009688398 0.30100337 -0.0063690455
0.035351735 0.006609213 0.16169173 -0.28566897 -0.22304508 -0.3973686 0.04428972 -0.36314848
00000000: 8be3 78bd ab7b d43d 1bf3 e83d 5a73 00be
00000010: 1f19 8ebd 42e7 3abe a5cb fe3e 5c40 923d
00000020: 7afb 2cbe 89c2 63bd ac7c fabe 3afb 3f3d
00000030: 3187 a13d 7f27 8fbe 3f51 2fbf 89d3 643e
00000040: 3649 66bf b95b 4ebe 4dbd 5dbe e1bf 2d3a
00000050: f1ab 55bd 40f9 dfbd 1cd4 c53d 1f10 973e
00000060: c0cc e1bd 3191 73ba d52a 3ebe c1c2 59bb
00000070: 6430 b6be e706 5c3b d29a e13c d898 31be
00000080: bd13 873e 20db 56bc 4848 fd3e ee18 e7be
00000090: 305f 3dbc bdf9 7d3a 1d1d 9a3e 6db3 d0bb
000000a0: fbcc 103d 1992 d83b 8492 253e 3443 92be
000000b0: ee65 64be e673 cbbe 2369 353d 99ee b9be

weight f4 [48, 48]
0.20280965 -0.8834177 -0.9117199 0.17812347 0.18849246 -0.8521299 0.37036124 -0.20996031
-0.008594882 0.8627925 -0.22524191 -0.0300451 -0.4795431 0.037249137 0.25549302 -0.09493222
-0.28527287 0.14528203 -0.035851184 0.5042532 0.40779635 -0.48685655 -0.34294057 0.29032207
-0.09740225 0.35031685 0.5301406 0.041279234 -0.21606816 0.023670677 -0.07151934 -0.025306506
-0.47088107 -0.47642112 -0.52517575 0.115996934 -0.3864787 -0.45245245 0.36656898 -0.03959981
-0.040435866 -0.46305823 0.22520654 -0.59664226 -0.42856655 -0.14945 -0.37129664 0.063258685
0.16581768 0.064571455 0.29400927 -0.13962808 -0.277647 0.3838957 -0.28857294 0.2266994
-0.0010192614 -0.13791493 0.059371836 -0.02836006 0.2179739 -0.046086926 -0.19084385 -0.036021627
0.13301727 -0.081462316 -0.47582924 -0.26624337 -0.5737862 0.636103 0.4885151 0.13889037
-0.16531888 -0.65133786 -0.8340952 0.102221616 0.44363344 -0.37022406 0.571824 0.4239821
0.33484557 0.67626566 0.42990452 0.048171163 0.59021354 0.27385154 0.21749163 -0.46484903
-0.5518156 0.023298223 -0.13580039 0.2096176 0.39962116 -0.05136351 0.4494395 -0.33382916
-0.009864643 0.20862858 0.12534317 0.04083292 -0.0900144 0.36471763 -0.20190415 0.01241205
-0.0014063438 -0.075851135 0.08246516 0.059532017 0.12609355 0.006302669 -0.04129724 0.035188198
-0.06395372 -0.21790045 -0.1929648 -0.22458114 -0.22036484 0.06010953 0.19457784 -0.21898966
0.0668997 -0.26563755 -0.06023874 -0.11629382 -0.041361395 -0.15172091 0.05022823 0.08844346
0.21987513 0.10674562 0.19328548 0.009358104 0.05090878 0.23379089 0.016435485 -0.05711812
0.10049256 0.15902187 0.00020439771 0.006952697 0.11072611 -0.1265251 0.0857407 -0.0098942565
-0.039484914 0.34927365 0.2968986 0.09839463 0.278147 0.5937592 -0.19493286 0.028225139
0.00075442396 0.12300757 0.01136514 -0.0061831875 0.14846583 0.09123264 0.16251129 0.17619154
-0.14768234 -0.40071118 -0.3681798 -0.37202123 -0.397843 0.1685687 0.074879974 -0.5025097
0.05462731 -0.5324099 -0.17262934 -0.33644673 -0.109407134 -0.27523094 -0.23621011 0.17000362
0.5454745 0.37071618 0.4899032 -0.020370098 0.36273518 0.52793443 -0.0016350835 0.20533532
0.081720546 0.7460233 -0.14308074 0.31121635 0.41565955 0.09156331 0.33561218 0.035618126
0.027431456 -0.22256345 -0.12266151 -0.23713467 0.15695685 -0.17474647 0.42434588 -0.021277431
-0.010806988 0.06006921 0.010174984 0.025636293 0.037102014 0.037097037 0.16567405 0.121431254
-0.2191107 -0.20746677 0.03221085 -0.05731164 -0.33706522 0.42706624 0.19474408 0.0482297
0.18066914 -0.4802323 0.06758644 0.438953 0.48936847 -0.0711474 0.43254694 -0.002835452
-0.022703059 -0.1198179 -0.13620408 0.1826054 -0.24121329 0.13786383 0.0021331378 0.11731944
0.2970565 -0.13220206 -0.011853687 0.16636576 0.0050276644 -0.069929294 -0.14735995 0.09769161
0.08160226 0.056133308 -0.19487996 0.09764199 0.26828963 -0.060196 0.36102027 -0.12541257
-0.029885937 0.41398773 -0.30378821 -0.034497824 0.06688108 0.13949603 0.32159516 0.3215018
00000000: 55ad 4f3e aa27 62bf 7a66 69bf 0066 363e
00000010: 2b04 413e 2f25 5abf fd9f bd3e d6ff 56be
00000020: 8cd1 0cbc f8df 5c3f d1a5 66be 2421 f6bc
00000030: ac86 f5be 8d92 183d fbcf 823e d36b c2bd
00000040: 490f 92be d0c4 143e b1d8 12bd bd16 013f
00000050: afca d03e 4345 f9be e895 afbe 18a5 943e
00000060: d57a c7bd bb5c b33e 4bb7 073f 6a14 293d
00000070: f940 5dbe 02e9 c13c bb78 92bd 974f cfbc
00000080: 5317 f1be 78ed f3be eb71 06bf cd8f ed3d
00000090: 89e0 c5be d9a7 e7be eeae bb3e 6933 22bd
000000a0: 14a0 25bd f815 edbe 8b9c 663e 8cbd 18bf
000000b0: 136d dbbe 6c09 19be 981a bebe c58d 813d
000000c0: 1ccc 293e 0a3e 843d 6288 963e aafa 0ebe
000000d0: bf27 8ebe fa8d c43e d5bf 93be e323 683e
000000e0: bd98 85ba 9239 0dbe e22f 733d 5b53 e8bc
000000f0: 8d34 5f3e a5c5 3cbd 926c 43be 6a8b 13bd
00000100: ae35 083e b7d5 a6bd e49f f3be 0d51 88be
00000110: a7e3 12bf a5d7 223f a71e fa3e 4739 0e3e
00000120: 5a49 29be 14be 26bf 4387 55bf 9159 d13d
00000130: ec23 e33e 028e bdbe 0f63 123f 2f14 d93e
00000140: e170 ab3e bf1f 2d3f 721c dc3e 204f 453d
00000150: 3c18 173f 4536 8c3e 20b6 5e3e b100 eebe
00000160: ca43 0dbf eadb be3c 420f 0bbe ffa5 563e
00000170: 259b cc3e 8b62 52bd ef1c e63e a8eb aabe
00000180: 509f 21bc bba2 553e f659 003e 6c40 273d
00000190: 7859 b8bd 45bc ba3e f6bf 4ebe e95b 4b3c
000001a0: 1155 b8ba d757 9bbd 7ee3 a83d d8d7 733d
000001b0: ab1e 013e 9f86 ce3b 4b27 29bd 8021 103d
000001c0: 2bfa 82bd 4c21 5fbe 9198 45be 99f8 65be
000001d0: 52a7 61be 6935 763d 6a3f 473e d33e 60be
000001e0: b602 893d a501 88be e6bc 76bd 742b eebd
000001f0: 916a 29bd ba5c 1bbe 1ebc 4d3d d821 b53d
00000200: f226 613e 739d da3d a1ec 453e bc52 193c
00000210: ba85 503d e166 6f3e b6a3 863c b1f4 69bd
00000220: 0bcf cd3d a1d6 223e 9853 5639 73d3 e33b
00000230: 5fc4 e23d cc8f 01be d298 af3d 851b 22bc
00000240: efba 21bd ffd3 b23e 1803 983e 2083 c93d
00000250: 4969 8e3e 9a00 183f 7b9c 47be 6838 e73c
00000260: 89c4 453a 65eb fb3d da34 3a3c 569c cabb
00000270: 6d07 183e 2ed8 ba3d 5c69 263e 8e6b 343e
00000280: 0a3a 17be 042a cdbe 1082 bcbe 9179 bebe
00000290: 14b2 cbbe 469d 2c3e ac5a 993d 7aa4 00bf
000002a0: e3c0 5f3d 044c 08bf bfc5 30be bf42 acbe
000002b0: d910 e0bd 12eb 8cbe 10e1 71be 6e15 2e3e
000002c0: 38a4 0b3f 83ce bd3e 98d4 fa3e 31df a6bc
000002d0: 6db8 b93e b626 073f 4c50 d6ba 6c43 523e
000002e0: 1a5d a73d 62fb 3e3f c283 12be c057 9f3e
000002f0: 54d1 d43e 8b85 bb3d 5cd5 ab3e 50e4 113d
00000300: efb7 e03c ace7 63be f535 fbbd 6ed3 72be
00000310: 4cb9 203e bdf0 32be dd43 d93e 024e aebc
00000320: cb0f 31bc 220b 763d fab4 263c 3403 d23c
00000330: 48f8 173d 10f3 173d 75a6 293e f3b0 f83d
00000340: 8e5e 60be 2b72 54be 86ef 033d 9cbf 6abd
00000350: d093 acbe 6da8 da3e fe6a 473e 828c 453d
00000360: 5501 393e 02e1 f5be c26a 8a3d 73be e03e
00000370: 818e fa3e bab5 91bd cb76 dd3e fed2 39bb
00000380: c4fb b9bc 1663 f5bd 1579 0bbe e9fc 3a3e
00000390: 9e00 77be 2d2c 0d3e 1dcc 0b3b 2d45 f03d
000003a0: ca17 983e fa5f 07be f835 42bc c95b 2a3e
000003b0: 1bbf a43b 1737 8fbd 87e5 16be 8a12 c83d
000003c0: 161f a73d 0aec 653d 9d8e 47be 86f8 c73d
000003d0: 425d 893e 1590 76bd a6d7 b83e 276c 00be
000003e0: 5ad3 f4bc 33f6 d33e 218a 9bbe 974d 0dbd
000003f0: f3f8 883d 0cd8 0e3e 1fa8 a43e e29b a43e

att_src f4 [1, 1, 2]
2.508783 0.109985955
00000000: e78f 2040 5140 e13d

att_dst f4 [1, 1, 2]
0.25076768 0.0004814226
00000000: 9f64 803e 7367 fc39

bias f4 [2]
-0.6605985 -0.38846052
00000000: fc1c 29bf 4ce4 c6be

weight f4 [2, 48]
-0.0056775315 -0.44205478 -0.018616311 0.12655029 0.39782372 -0.29916862 -0.63171613 -0.29658553
0.3802567 0.21327439 -0.21662863 0.38975552 0.17003849 -0.20247783 -0.059818506 0.1494519
-0.7775966 0.25318125 0.4775884 -0.00014061181 -0.40819743 -0.44380966 -0.13758783 0.12984899
-0.31888095 -0.0012831101 -0.36820602 -0.64581954 0.53502995 0.00045498007 -0.2420128 0.21216387
0.33729532 0.0016204716 0.11485205 -0.2642273 -0.0012914441 -0.0002795456 0.36291835 -0.08963445
0.36719307 -0.0034628257 -0.04258509 0.5941657 -0.48959556 -0.953856 -0.037442233 -0.44622216
-1.0721917 1.0634328 0.0043346058 -0.12269377 1.0831084 -0.95123947 0.98885906 0.41422626
0.41722053 -1.3090888 0.9219802 -1.0721953 0.94068474 -0.7350778 -1.6131905 0.80501133
-0.11223959 -1.278956 -0.034680687 0.00011508449 1.1741114 0.7906712 -0.2624297 -1.5864308
0.7007074 0.00044154772 -0.38218805 -0.88895714 -0.810348 -0.0010815578 -0.45862275 0.50833154
-0.5978454 0.005822467 -1.1558276 -1.43147 0.004431914 -0.0019370081 -0.8264717 -0.6980806
0.3990454 -0.0064233425 -0.47970557 0.38228846 0.64139426 -0.86244756 -0.21398687 0.11938954
00000000: 960a babb 0155 e2be 3c81 98bc 6696 013e
00000010: 8daf cb3e a12c 99be 26b8 21bf 0fda 97be
00000020: 02b1 c23e 9a64 5a3e e5d3 5dbe 098e c73e
00000030: 921e 2e3e 5956 4fbe 4004 75bd eb09 193e
00000040: 9210 47bf f9a0 813e 7786 f43e 3271 13b9
00000050: 41ff d0be 053b e3be d3e3 0cbe 22f7 043e
00000060: 5d44 a3be 082e a8ba 8085 bcbe 6e54 25bf
00000070: b9f7 083f 648a ee39 34d2 77be 7c41 593e
00000080: f9b1 ac3e 0166 d43a 8d37 eb3d cd48 87be
00000090: ac45 a9ba fa8f 92b9 6fd0 b93e 4492 b7bd
000000a0: bb00 bc3e 93f0 62bb b46d 2ebd 3e1b 183f
000000b0: 45ac fabe e82f 74bf 075d 19bd 3b77 e4be
000000c0: 943d 89bf 911e 883f 4f09 8e3b df46 fbbd
000000d0: 4ca3 8a3f 6e84 73bf de25 7d3f 7715 d43e
000000e0: ee9d d53e 3990 a7bf e506 6c3f b23d 89bf
000000f0: b7d0 703f 0f2e 3cbf 077d cebf 3915 4e3f
00000100: dfdd e5bd d5b4 a3bf 560d 0ebd 8459 f138
00000110: 4849 963f 6e69 4a3f 305d 86be 2a10 cbbf
00000120: 8f61 333f 887f e739 27ae c3be b292 63bf
00000130: f772 4fbf 0fc3 8dba 9ad0 eabe 0422 023f
00000140: 650c 19bf 65ca be3b 29f2 93bf 693a b7bf
00000150: 9739 913b 35e3 fdba a693 53bf 69b5 32bf
00000160: ae4f cc3e e77a d2bb f89b f5be 50bb c33e
00000170: 6a32 243f 5dc9 5cbf 601f 5bbe 8182 f43d

weight f4 [2, 16]
0.039040476 0.14381114 -0.23548743 -0.0755775 -0.121409416 0.016470075 0.19107974 -0.0014252961
0.19576949 0.2184842 0.21040863 0.22131267 0.19681504 -0.13911885 0.09683022 0.110711664
0.16888988 -0.09682888 0.18470952 0.13342276 -0.10559189 0.070436776 0.14053446 -0.08638483
0.07868868 0.20651197 0.067750245 0.045643777 0.19996464 -0.021487236 -0.18844727 0.15202996
00000000: e8e8 1f3d 3a43 133e 9e23 71be 60c8 9abd
00000010: 80a5 f8bd 40ec 863c 68aa 433e 00d1 baba
00000020: cc77 483e 52ba 5f3e 5c75 573e ca9f 623e
00000030: e289 493e 2c75 0ebe ec4e c63d ccbc e23d
00000040: 78f1 2c3e 384e c6bd 7e24 3d3e fa9f 083e
00000050: 9040 d8bd 2841 903d 44e8 0f3e 88ea b0bd
00000060: 8827 a13d e077 533e a4c0 8a3d f8f4 3a3d
00000070: 88c3 4c3e 0006 b0bc 52f8 40be bead 1b3e

bias f4 [2]
-0.021568894 -0.085412204
00000000: 40b1 b0bc 98ec aebd
