src/GNN/best_model_3.pth (torch, 70662 bytes, 14 tensors)

att_src f4 [1, 3, 16]
0	0xbecb0850	-0.3965478
1	0x3dcd2a17	0.100177936
2	0x3ebf37fd	0.37347403
3	0x3deb5c92	0.11492266
4	0xbe04be6c	-0.12963265
5	0xbe01ba55	-0.12668736
6	0x3e2956bc	0.16536993
7	0x3ecb3e95	0.39696184
8	0xbfc622b1	-1.5479337
9	0xbf88ec2c	-1.0697074
10	0x3f6e8b2f	0.9318113
11	0xbe051e3f	-0.12999819
12	0x3fada6fe	1.3566587
13	0xbf551840	-0.8324013
14	0x3f5c0f1d	0.8596056
15	0xbe4054b2	-0.18782309
16	0xbf5dbd68	-0.86617136
17	0xbefc452d	-0.49271527
18	0x3dcd576d	0.10026441
19	0x3e7b0fb7	0.24517713
20	0x3f0501a9	0.5195566
21	0x3ea8dd8f	0.32981536
22	0xbd8c2474	-0.068428904
23	0xbfa39ca2	-1.2782176
24	0xbe0e6f34	-0.13909608
25	0xbe51a789	-0.20474066
26	0xbfb0a034	-1.379889
27	0xbeeb7540	-0.45987892
28	0x3f298fcf	0.6623506
29	0xbe212a77	-0.15738855
30	0x3cbc39f6	0.022976857
31	0xbee37756	-0.44426984
32	0xbfbcf0ad	-1.4760948
33	0xc007d6d2	-2.1224866
34	0x3f06ceb2	0.5265914
35	0x3eeb217d	0.45923987
36	0x3f564bca	0.83709395
37	0xbfeee99d	-1.8665043
38	0xbf9612e5	-1.1724516
39	0x3fa89ef2	1.3173506
40	0xbfc300f3	-1.5234665
41	0xbfdd2ad9	-1.7278701
42	0xbfbe3a2e	-1.4861505
43	0xbf85aa3c	-1.0442576
44	0x3ed5d774	0.4176594
45	0xbe379d51	-0.17931105
46	0x3e2605b9	0.1621312
47	0xbffbe12b	-1.9678091

att_dst f4 [1, 3, 16]
0	0x3f2de76a	0.67931235
1	0xbf2a1279	-0.6643444
2	0x3efef5b9	0.49796847
3	0xbf0abcf9	-0.541946
4	0xbe560e47	-0.20903884
5	0xbe4e37e5	-0.2013851
6	0xbecb40d6	-0.39697903
7	0xbf0e7682	-0.5564958
8	0x3fb2de6b	1.3974127
9	0x3ec0e30c	0.37673223
10	0xbe21c678	-0.15798366
11	0x3f359a03	0.7093813
12	0xbf4255bb	-0.75912064
13	0x3f998e90	1.1996632
14	0xbf386cfa	-0.72041285
15	0xbe83253b	-0.25614342
16	0x3e56f424	0.2099157
17	0x3f0db4a0	0.55353737
18	0x3d175200	0.036943436
19	0xbd61116f	-0.054948267
20	0x3ebd2330	0.36940908
21	0xbe236a33	-0.1595848
22	0x3d939d8e	0.072077855
23	0x3f1b4e8f	0.60666746
24	0x3dcebb8f	0.10094368
25	0x3ddaf4d1	0.10691226
26	0x3e6463bf	0.22303675
27	0x3e68cf7a	0.22735396
28	0xbe3df67c	-0.18551058
29	0x3e325fc6	0.17419347
30	0xbee03a1a	-0.43794328
31	0x3e0d33d7	0.13789307
32	0xbcc15942	-0.023602132
33	0xbcd66541	-0.026171328
34	0xbd4acf17	-0.049513903
35	0x3c01c3b4	0.007920194
36	0x388835e4	6.495023e-05
37	0x3d2ad931	0.041711036
38	0x3dd2d9c5	0.102954425
39	0x3ce7be91	0.028289111
40	0xbddc44cf	-0.10755312
41	0xbdced42e	-0.10099064
42	0xbd24ca6e	-0.040232114
43	0x3efc93a7	0.493314
44	0xbdcc9795	-0.099898495
45	0x3d7cfff2	0.061767526
46	0x3b154ca3	0.0022781275
47	0xbddff4e5	-0.10935382

bias f4 [48]
0	0xbf31526a	-0.6926638
1	0x3f8ef858	1.1169538
2	0xbf7a621a	-0.9780594
3	0x3ed51acf	0.41622016
4	0x3f76c872	0.96399605
5	0x3f5c2e4a	0.8600813
6	0x3f5b137c	0.85576606
7	0x3e9cea43	0.30647478
8	0xbc81fcdb	-0.015867641
9	0x3efcb798	0.4935882
10	0x3ee2c98e	0.442944
11	0xbf86b791	-1.052477
12	0xbece5911	-0.40302327
13	0xbf7779c9	-0.96670204
14	0x3f250a58	0.6446891
15	0x3ed56368	0.41677403
16	0x3cd97715	0.02654604
17	0xbf4366d4	-0.7632878
18	0xbe11d2fa	-0.14240637
19	0xbe8d5d0d	-0.27610055
20	0xbf6036ba	-0.87583506
21	0x3d6b57b6	0.057456695
22	0xbe1b3c67	-0.1515976
23	0x3d20b3e1	0.039234046
24	0xbedda208	-0.43287683
25	0xbde4fe07	-0.11181264
26	0x3eb24501	0.3481827
27	0xbee36f51	-0.44420865
28	0x3e77c64f	0.24196742
29	0xbd64f137	-0.055894103
30	0x3f37e3d7	0.7183203
31	0x3e2a6487	0.1663991
32	0x3ec27ffa	0.37988263
33	0x3f14a99f	0.5807132
34	0xbf4d5a16	-0.80215585
35	0x3ea6a609	0.3254855
36	0xbf116af5	-0.5680383
37	0x3eba0aa9	0.36336258
38	0x3c6f4a2b	0.014605085
39	0xbf01c6b2	-0.5069381
40	0x3f4aa6ed	0.7916096
41	0x3f2db06e	0.67847335
42	0x3efad8b3	0.48993453
43	0x3dd65c46	0.104668185
44	0x3d856f70	0.06515396
45	0xbf14ca31	-0.5812102
46	0xbd89d640	-0.06730318
47	0x3f5f367a	0.871925

weight f4 [48, 6]
0	0xbd1d7651	-0.038442913
1	0x3f9368e7	1.1516389
2	0x3e1c5186	0.15265474
3	0xbe933f89	-0.2875941
4	0xbf5c8e65	-0.86154777
5	0x3f64d971	0.8939429
6	0xbec5abf2	-0.38607746
7	0xbf0b8b1a	-0.5450913
8	0xbcf43fbd	-0.029815549
9	0xbd632283	-0.055452835
10	0x3c580c7b	0.013186569
11	0xbf67b324	-0.9050772
12	0xbe2d9f2d	-0.16955252
13	0x3f8a0d16	1.0785244
14	0x3e55189d	0.2081017
15	0xbf417044	-0.7556193
16	0x3eb1dd91	0.34739354
17	0x3fc00170	1.5000439
18	0xbe9abdd5	-0.30222955
19	0xbeb19ea2	-0.3469134
20	0x3e90dee1	0.28295043
21	0xbe565caa	-0.20933786
22	0xc016474a	-2.3481011
23	0x3f6a76ad	0.91587335
24	0xbe042222	-0.12903646
25	0xbe47845a	-0.19484082
26	0x3ea28473	0.31741676
27	0x3dbb3e18	0.09142703
28	0x3db003bf	0.085944645
29	0xbfb6811d	-1.4258152
30	0x3dc8306b	0.0977486
31	0xbe4d60c3	-0.20056443
32	0x3e0aeb2c	0.13566273
33	0x3d2e975d	0.04262482
34	0xbe0c77d8	-0.13717592
35	0xbf9f99a1	-1.2468759
36	0x3e8944b9	0.26810244
37	0xbe93fb5b	-0.28902707
38	0x3e06744e	0.13130304
39	0xbe3f3614	-0.18672973
40	0xbcd282d8	-0.025697157
41	0xbfdadfb7	-1.7099522
42	0xbdf576e6	-0.11985569
43	0xbe8bc54d	-0.27298966
44	0xbec2a372	-0.38015324
45	0xbefb14e1	-0.49039367
46	0xbf0ab9ad	-0.5418957
47	0x3f6d8beb	0.9279162
48	0xbdfe2349	-0.12409074
49	0x4004e849	2.0766776
50	0x3e30cc17	0.17265354
51	0x3e8fe682	0.2810555
52	0xbdb5fcd0	-0.08886111
53	0xc01eac37	-2.4792612
54	0xbe3a61c4	-0.18201357
55	0x3f8b78a7	1.0896195
56	0xbe69a919	-0.22818412
57	0x3df6c707	0.1204968
58	0xbdd9d6eb	-0.106366955
59	0xc03f844a	-2.9924493
60	0x3e2be0cf	0.16784976
61	0xbf6701d9	-0.90237194
62	0x3e8ba8b5	0.2727715
63	0x3df89400	0.12137604
64	0x3ebb7918	0.36615825
65	0x4012834c	2.2892637
66	0x3e5038d3	0.20334177
67	0x3e776ebd	0.24163337
68	0xbd6d6c66	-0.057964705
69	0x3ec26609	0.37968472
70	0x3e0db18a	0.13837257
71	0x3ff63e0b	1.9237684
72	0x3ea012ae	0.3126425
73	0xbfa941c3	-1.3223194
74	0x3e06beca	0.13158718
75	0xbe81fc5d	-0.2538785
76	0x3e7914e6	0.24324378
77	0x3fd1f1a5	1.6401869
78	0xbe10a0e8	-0.14123881
79	0x3fa8bbc5	1.3182303
80	0xbdc96026	-0.09832792
81	0x3eb04559	0.34427908
82	0x3f019833	0.5062286
83	0x3edcef51	0.43151334
84	0xbec79d2a	-0.38987094
85	0xbf0e581c	-0.55603194
86	0x3e9116ee	0.28337806
87	0xbef5b233	-0.47987518
88	0x3f433689	0.7625509
89	0xbe87aa6b	-0.26497206
90	0x3ef87008	0.48522973
91	0xbe5d5a82	-0.21616557
92	0xbe5e5d6d	-0.21715327
93	0x3d6d111f	0.057877656
94	0x3d8e98c4	0.069627315
95	0xc0149ceb	-2.3220775
96	0x3e469bb7	0.19395338
97	0xbedf0e0e	-0.4356541
98	0x3f1bdb27	0.60881275
99	0xbf0e97f2	-0.557006
100	0xbc59ba06	-0.01328898
101	0x3f0d7443	0.55255526
102	0xbd23bd8e	-0.039975695
103	0x3fe778ab	1.80837
104	0x3df61423	0.120155595
105	0x3e259a28	0.16172087
106	0x3eab27a1	0.33428672
107	0x3e3176c9	0.17330469
108	0x3e3cadac	0.18425626
109	0xbd2ce52c	-0.042210743
110	0xbd81420e	-0.06311427
111	0x3e31c599	0.17360534
112	0xbe468f35	-0.19390567
113	0x3d031389	0.032001052
114	0x3bf3ca05	0.007439854
115	0xbd3aa5c0	-0.045568228
116	0x3cc7dce9	0.02439733
117	0x3ee247f2	0.44195515
118	0xbdd5b137	-0.10434192
119	0x3d6243db	0.055240493
120	0x3e645b43	0.22300439
121	0x3f1ae219	0.6050125
122	0xbedb1cf4	-0.42795527
123	0x3ebff876	0.37494248
124	0x3e8d3f1e	0.27587217
125	0x3fc03752	1.5016882
126	0x3d5aabd9	0.053386543
127	0xbe388e75	-0.18023093
128	0x3dd752f0	0.10513866
129	0xbc7d4876	-0.015459171
130	0x3f8fa0a7	1.1220902
131	0xbf9b6e44	-1.2143025
132	0x3e21aec3	0.15789323
133	0xbd672430	-0.056430995
134	0x3dbfe0e1	0.09369064
135	0x3dbd8a24	0.09254864
136	0xbe149a7b	-0.14512055
137	0x3cb1f201	0.021721842
138	0x3e449ede	0.19201228
139	0x3f0faeed	0.5612629
140	0x3ea5bdd0	0.32371378
141	0xbff8eade	-1.9446676
142	0xbee43e4b	-0.44578776
143	0x3e8b432a	0.2719968
144	0xbcb8fa58	-0.02258031
145	0x3e0e08c5	0.13870533
146	0x3e94f831	0.29095605
147	0x3e51aef8	0.20476902
148	0xbe35722d	-0.17719336
149	0x3e910056	0.2832057
150	0x3e40dc77	0.188341
151	0xbda4fe76	-0.08056347
152	0x3e2bb097	0.16766582
153	0x3bf3b6eb	0.007437577
154	0xbe2f2a58	-0.17105997
155	0xbcaa4a41	-0.02078736
156	0x3e1c501b	0.15264933
157	0x3f803787	1.0016946
158	0x3d72b49f	0.059254285
159	0xbe844e29	-0.2584088
160	0xc03cea83	-2.9518135
161	0xbf194a5a	-0.59879076
162	0xbb7c7d23	-0.0038526736
163	0x3e147b04	0.14500052
164	0x3ec06ced	0.37583104
165	0xbd86b0c3	-0.06576683
166	0x3ecc511f	0.3990564
167	0x3f820919	1.0159026
168	0xbdb20f10	-0.08694279
169	0xbd8dfe35	-0.06933252
170	0xbf07c2fa	-0.53031886
171	0x3e1bf982	0.15231898
172	0x3ea16144	0.3151952
173	0xbe03faa2	-0.12888578
174	0x3eba9139	0.3643892
175	0x3e612574	0.21986943
176	0x3e2cb9d8	0.16867769
177	0x3e6177d5	0.22018369
178	0xbf40511b	-0.7512376
179	0xbf6007e4	-0.8751204
180	0xbed14ffc	-0.40881336
181	0xbf38e71e	-0.72227657
182	0xbde113f4	-0.10990134
183	0xbc91a454	-0.017778553
184	0xbf228fc5	-0.63500625
185	0x3e8bb242	0.27284437
186	0xbcb5918b	-0.022164127
187	0x3d17f45d	0.037098277
188	0x3e9bb857	0.30414078
189	0xbf009a7a	-0.5023571
190	0x3cb6415b	0.02224796
191	0xbd666ef3	-0.056258153
192	0x3dec368a	0.1153384
193	0xbff78bd5	-1.9339548
194	0xbd7ef285	-0.062243003
195	0x3f1e9de2	0.6195966
196	0x3e318438	0.17335594
197	0x3f7b2b77	0.981132
198	0x3d5a7421	0.053333405
199	0xc01c33e2	-2.4406667
200	0x3e033dc4	0.1281653
201	0x3c9ce795	0.019153396
202	0x3e2ead08	0.17058194
203	0x3f731678	0.9495616
204	0x3f1b6014	0.6069348
205	0x3f1de280	0.61673737
206	0x3dcb127e	0.099156365
207	0xbd99f942	-0.07518245
208	0x3f341491	0.7034388
209	0xbeab8613	-0.33500728
210	0xbea6cca6	-0.3257801
211	0x3e01a556	0.12660727
212	0x3d6f05bc	0.058355078
213	0x3ccd7d54	0.025084175
214	0xbea56044	-0.32300007
215	0x3fed9d23	1.8563579
216	0x3d96799d	0.07347415
217	0x3f37a1e3	0.71731395
218	0xbdee06ba	-0.11622377
219	0x3f33a636	0.7017549
220	0xbf305a90	-0.6888819
221	0x3dda5615	0.1066095
222	0x3cec4828	0.028843
223	0xbff1f782	-1.8903658
224	0x3e56a5b2	0.20961645
225	0x3eb7cef8	0.35900092
226	0x3e843271	0.25819734
227	0x3edd2e88	0.43199563
228	0x3ea24dc7	0.31699964
229	0xbf51fba3	-0.8202459
230	0x3ef27323	0.47353467
231	0x3f6c18c8	0.92225313
232	0xbde0e508	-0.10981184
233	0xbf998624	-1.1994061
234	0x3e8508c8	0.25983262
235	0x3f9da255	1.2315165
236	0x3e2ef08a	0.17083946
237	0x3dfc9c15	0.12334458
238	0x3e805344	0.25063527
239	0x3fe332fb	1.7749933
240	0x3e82f262	0.25575548
241	0xbfe91f01	-1.8212587
242	0xbd394e59	-0.045240734
243	0xbdba612b	-0.091005646
244	0xbcd5974b	-0.026073119
245	0x3e188204	0.14893347
246	0x3e81d1c5	0.25355354
247	0xbffb5ed1	-1.9638311
248	0x3d2c8a27	0.04212394
249	0xbebc901c	-0.36828697
250	0x3dc14f9d	0.09439013
251	0x3ea7dd4f	0.32786033
252	0x3e20bdc8	0.15697396
253	0xbfd6cef4	-1.6781907
254	0x3dc0450e	0.09388171
255	0xbdc997a8	-0.09843379

att_src f4 [1, 3, 16]
0	0xbe1ff227	-0.15619718
1	0x3e9bc9fe	0.30427545
2	0x3c3c9e8e	0.011512412
3	0xbf05ebbc	-0.5231283
4	0xbed98986	-0.42487735
5	0x3f2ec42d	0.6826809
6	0xbf13878c	-0.57628703
7	0xbe19dc32	-0.15025404
8	0x3cc921f8	0.02455233
9	0x3bab47d9	0.005227071
10	0xbd0aff0c	-0.033934638
11	0x3e18eb5e	0.14933535
12	0x3fc44158	1.5332441
13	0xbf9d03e1	-1.2266809
14	0xbf1d53df	-0.614561
15	0xbfc2b213	-1.5210594
16	0xbe1cb2e0	-0.1530261
17	0xbee84db9	-0.45371798
18	0xbd9cabc3	-0.076499484
19	0xbf3d2b1e	-0.73893917
20	0xbc367e9d	-0.011138585
21	0x3f47d1ff	0.78054804
22	0xbf0f7fcd	-0.56054384
23	0xbda275b5	-0.07932607
24	0xbf2b8339	-0.66997105
25	0x3f75fb4e	0.96086586
26	0x3f4cb34c	0.79961085
27	0x3f824783	1.0178074
28	0xbe07aa65	-0.13248594
29	0xbf33ebfc	-0.7028196
30	0x3fe91f94	1.8212762
31	0x3f5efe95	0.8710721
32	0xbedb4798	-0.4282806
33	0x3f8fdf04	1.1239934
34	0xbf9ffbdd	-1.2498738
35	0xbec010fb	-0.37512955
36	0xbe87bab6	-0.26509637
37	0x3d677cd7	0.05651554
38	0xc03d217d	-2.955169
39	0x3ed3656d	0.4128832
40	0x3f169028	0.58813715
41	0x3ee52ad7	0.44759247
42	0x3f95e881	1.171158
43	0x3da22e86	0.0791903
44	0xbdc337e7	-0.09532147
45	0xbd987d07	-0.07445722
46	0x3f4a66fb	0.79063386
47	0xbfb7efd7	-1.4370068

att_dst f4 [1, 3, 16]
0	0xbf00f47c	-0.50373054
1	0xbf51e69b	-0.819925
2	0xbde6ffb3	-0.112792395
3	0xbed24056	-0.4106471
4	0x3ef2b111	0.47400716
5	0xbf0e2b0d	-0.5553444
6	0x3e4adaa2	0.19809964
7	0x3e704abb	0.23466007
8	0x3d2d6f60	0.042342544
9	0xbcd5596f	-0.026043622
10	0xbf66c87c	-0.90149665
11	0xbe5fc660	-0.21853018
12	0xbf25a5d3	-0.6470615
13	0x3f5c6e73	0.8610603
14	0x3e956bc5	0.29183784
15	0x3f79265d	0.9732416
16	0x3e76110f	0.24029945
17	0xbe6bc254	-0.23023349
18	0xbecb3545	-0.3968908
19	0x3f52f24c	0.82400966
20	0xbf8830e6	-1.0639923
21	0xbeba2333	-0.3635498
22	0x3f26d667	0.651709
23	0xbe1252a3	-0.14289336
24	0x3f1f39fa	0.6219784
25	0xbeec4482	-0.46146017
26	0xbec2997b	-0.3800772
27	0xbf0ad4de	-0.5423106
28	0xbf2d7bd1	-0.67767054
29	0x3f240c01	0.64080817
30	0xbfb1ce38	-1.3891058
31	0xbed10eb2	-0.40831524
32	0x3bb08e23	0.005388038
33	0xbf04b86d	-0.5184391
34	0x3ec24240	0.3794117
35	0x3db44778	0.08802694
36	0xbf8dc841	-1.1076738
37	0xbf02965e	-0.5101069
38	0x3f18c981	0.5968247
39	0x3ec41892	0.38299996
40	0x3e37d49c	0.17952198
41	0x3e8877c1	0.26653865
42	0xbf0319c6	-0.512112
43	0xbf095971	-0.536521
44	0xbef061c4	-0.4694959
45	0xbad378c1	-0.001613401
46	0xbe114d9d	-0.14189763
47	0xbc89c909	-0.016819494

bias f4 [48]
0	0xbe4997cc	-0.19686812
1	0xbe7ab875	-0.24484427
2	0xba0cc715	-0.00053702417
3	0xbd88b1bf	-0.066745274
4	0xbe34e2d2	-0.1766465
5	0x3e9f4d50	0.31113672
6	0x3e5b3c05	0.21409614
7	0x3e45f0d9	0.19330157
8	0xbd7ffeab	-0.06249873
9	0xbbdf91d1	-0.0068228026
10	0xbf04032e	-0.5156735
11	0x3d1c464f	0.03815299
12	0xbec3fc5c	-0.38278472
13	0x3ece303b	0.40271172
14	0x3ec8d4a9	0.39224747
15	0x3f043edb	0.5165841
16	0xbe0df5b1	-0.13863255
17	0xbf002dcd	-0.50069886
18	0x3e198b49	0.1499454
19	0xbce230bd	-0.02761113
20	0xbee389eb	-0.4444116
21	0x3e5d7dfe	0.21630093
22	0xbe0dd6f9	-0.13851537
23	0xbda1bf4b	-0.07897814
24	0xbe08220b	-0.13294236
25	0x3e427fa5	0.18994005
26	0x3e355cc5	0.1771117
27	0x3e444254	0.19165927
28	0xbd07b83d	-0.033134688
29	0xbe062bca	-0.13102642
30	0xbdcfc45b	-0.10144874
31	0x3e4cd272	0.20002154
32	0xbc36593b	-0.011129673
33	0xbe063ce9	-0.13109173
34	0xbbf1cb04	-0.0073789377
35	0x3d6c571b	0.057700258
36	0xbf608ff8	-0.8771968
37	0x3d84c1ca	0.06482275
38	0x3e5bfa11	0.21482112
39	0xbdd6282f	-0.10456883
40	0xbd89e8db	-0.06733867
41	0xbda08af6	-0.07839005
42	0xbd76e9d4	-0.06028159
43	0x3d0df4ac	0.034657165
44	0xba914f86	-0.0011086322
45	0xbe262f03	-0.16228871
46	0xbdb3848a	-0.08765514
47	0xbdd07d04	-0.10180095

weight f4 [48, 48]
0	0x3ef2b498	0.47403407
1	0xbe1ea605	-0.15493019
2	0x3c05c35f	0.008164256
3	0x3fa80f4c	1.3129668
4	0xbd8735d1	-0.066020615
5	0x3e3f0e6e	0.18657848
6	0x3ea746ae	0.32671112
7	0x3e45dbc2	0.19322112
8	0xb9ec111f	-0.00045026184
9	0xbccae3a2	-0.024766747
10	0xbf05325b	-0.5202996
11	0xbe711025	-0.23541315
12	0x3e6773a9	0.22602715
13	0xbe6fc050	-0.23413205
14	0xbe8dc006	-0.27685565
15	0x3eb28823	0.3486949
16	0x3dd0cace	0.10194932
17	0x3df83f7b	0.12121483
18	0x3de44123	0.11145236
19	0x3d1f0784	0.038825527
20	0xbe36bedc	-0.17846245
21	0xbef1ca6d	-0.4722475
22	0x3dc72afc	0.097249955
23	0xbea03f0a	-0.31298095
24	0x3df3d09b	0.11905023
25	0x3dcc45b1	0.0997423
26	0x3fe3642b	1.7764944
27	0xbd4ba2a0	-0.04971564
28	0xbdfc5ff1	-0.12322987
29	0x3f08cf3d	0.5344122
30	0x3e3889e7	0.18021356
31	0x3d1896df	0.037253257
32	0xbed1c957	-0.40973923
33	0x3dc8dceb	0.09807762
34	0x3dbb17e0	0.09135413
35	0xbe99f9d8	-0.30073428
36	0x3e459124	0.19293648
37	0xbdc495a6	-0.09598856
38	0x3e468e57	0.19390236
39	0xbf220db7	-0.6330218
40	0x3e3a30f8	0.18182743
41	0x3e58082e	0.2109687
42	0x3d90166a	0.07035525
43	0x3dd01bd9	0.101615615
44	0x3d198d05	0.037488002
45	0xbe7ea733	-0.24868469
46	0x3e03a460	0.12855673
47	0x3e981fbf	0.2971172
48	0xbdca96ac	-0.0989202
49	0x3cc33ef4	0.02383373
50	0x3ea5103b	0.32238945
51	0x3e836046	0.25659388
52	0x3e89b6bb	0.26897225
53	0x3e2cf001	0.16888429
54	0x3ea08f91	0.31359532
55	0xbd108b9c	-0.035289392
56	0x3f36d441	0.71417624
57	0x3f6fc06b	0.9365298
58	0xbf90a626	-1.1300704
59	0xbf00633f	-0.5015144
60	0xbed5d364	-0.4176284
61	0x3ebc5399	0.3678253
62	0x3ec9d1b5	0.39417806
63	0x3f3b0362	0.73052037
64	0x3da26dde	0.07931112
65	0xbd40401f	-0.04693615
66	0xbe025257	-0.12726723
67	0xbe03416f	-0.1281793
68	0xbf0fd69c	-0.5618684
69	0x3f0ec904	0.55775476
70	0xbda34fa9	-0.07974178
71	0x3f291ae4	0.66056657
72	0xbdb74b96	-0.08949964
73	0x395c8795	0.00021031343
74	0x3dea7582	0.11448194
75	0xbcbb567a	-0.022868384
76	0xbdbb2bbe	-0.091392025
77	0x3e408080	0.18799019
78	0xbd9c4a37	-0.07631343
79	0x3e8360e8	0.2565987
80	0xbe18d886	-0.14926347
81	0x3a4d2da0	0.0007826928
82	0x3e2c6471	0.1683519
83	0xbf552f55	-0.8327535
84	0xbebf1e8d	-0.37327996
85	0x3e072cc9	0.13200678
86	0x3ef5638a	0.47927505
87	0xbf718410	-0.94342136
88	0x3df0a746	0.11750655
89	0x3dfdfead	0.12402091
90	0x3db3a36d	0.08771405
91	0x3eae953a	0.34098226
92	0xbbee1054	-0.00726513
93	0x3f3f15d0	0.7464266
94	0xbca1ef40	-0.019767404
95	0x3e3ab50e	0.1823313
96	0x3c918acc	0.017766379
97	0x3d8b7392	0.06809153
98	0xbcb6b1dd	-0.022301609
99	0x3e4b5b34	0.1985901
100	0x3aed9ae2	0.0018127824
101	0x3d27fb2b	0.041011017
102	0x3d9246cd	0.071424104
103	0x3d8a1b6f	0.06743514
104	0x3d68dc44	0.056850687
105	0x3e05f341	0.13081075
106	0x3dc02c53	0.09383454
107	0xbd1b25ec	-0.037877962
108	0x3d7a2943	0.061074506
109	0xbd980fec	-0.07424912
110	0xbd01696a	-0.03159467
111	0x3d7c2963	0.061562907
112	0xbe14fae8	-0.14548838
113	0xbd7f0340	-0.06225896
114	0x3d5907b4	0.052985862
115	0x3db75f48	0.0895372
116	0xbd4aa65f	-0.04947507
117	0x3d041854	0.032249764
118	0x3ba4997b	0.005023179
119	0xbe77e8b1	-0.24209858
120	0xbd1eaa25	-0.03873648
121	0xbcebd3e4	-0.02878756
122	0x3e671d69	0.22569813
123	0xbe613dba	-0.21996203
124	0x3e1d43c3	0.1535788
125	0x3d7c1b5d	0.061549533
126	0x3dfa3519	0.12217159
127	0xbe195091	-0.1497214
128	0xbe1b7356	-0.15180716
129	0xbdb11dbf	-0.08648252
130	0x3ba56a6a	0.005048086
131	0x3cf6a367	0.030107213
132	0x3d6c7aae	0.057734184
133	0xbd99765c	-0.074932784
134	0xbae2d8ac	-0.0017307005
135	0x3d6b4da8	0.057447106
136	0xbcaf5a20	-0.02140528
137	0xbd7d7a3a	-0.061884142
138	0xbd4126ea	-0.047156252
139	0xbe3003f0	-0.17189002
140	0x3baca23b	0.005268363
141	0xbcb168be	-0.02165639
142	0xbd8419a8	-0.06450206
143	0xbd28459b	-0.041082006
144	0xbdfecf7e	-0.1244192
145	0x3c101d12	0.008795993
146	0xbe0d07e2	-0.13772538
147	0x3e89309d	0.26794901
148	0x3d8e9398	0.06961745
149	0x3d92a7de	0.071609244
150	0x3e097835	0.13424762
151	0xbd25a11b	-0.040436845
152	0xbe2a577a	-0.16634932
153	0x3c62da2d	0.0138459625
154	0xbe9b4f12	-0.30333763
155	0xbdb07c1c	-0.08617422
156	0xbd3dad5d	-0.04630791
157	0x3ca806aa	0.02051099
158	0xbc818bdf	-0.015813766
159	0x3e8f3979	0.27973536
160	0xbd9f44d9	-0.077768035
161	0xbe9fa61d	-0.31181422
162	0x3ca99c16	0.02070431
163	0x3c9c758e	0.019099023
164	0xbe703773	-0.23458652
165	0x3adf5f8a	0.0017042023
166	0x3ca4109b	0.02002745
167	0x3e146a81	0.14493753
168	0xbcc9045f	-0.024538217
169	0x3d4c3093	0.04985101
170	0x3ea828ba	0.32843572
171	0xbe658e13	-0.22417478
172	0xbd89c461	-0.067269094
173	0x3e81e02a	0.25366336
174	0x3e15dd5a	0.1463522
175	0x3cf33920	0.029690325
176	0x3e2ca2b6	0.16858944
177	0x3e95d3d3	0.29263172
178	0x3e0a6e26	0.13518581
179	0xbf060fd3	-0.52367896
180	0xbcb7040a	-0.022340793
181	0x3e59d2bc	0.21271795
182	0x3e81be8a	0.25340682
183	0xbf1330cc	-0.57496333
184	0x3e8b38c5	0.2719175
185	0x3e9a61da	0.3015278
186	0x3e5d2c89	0.2159902
187	0x3ec6de76	0.388416
188	0x3c3e0cbd	0.011599717
189	0x3e4806c1	0.19533826
190	0x3ca1a468	0.019731715
191	0x3eac51a7	0.33656046
192	0xbc8a9c28	-0.016920164
193	0x3dec6459	0.11542577
194	0xbeeab54d	-0.45841447
195	0xbe1dae01	-0.15398408
196	0xbe43b73d	-0.19112869
197	0xbdcd71c5	-0.100314654
198	0xbc0ef99e	-0.008726506
199	0x3e0fcfaf	0.14044069
200	0xbf0e697b	-0.556297
201	0xbed47623	-0.4149638
202	0xbca61c75	-0.020277241
203	0x3e57ed2b	0.21086566
204	0x3ec3a443	0.3821126
205	0xbe8c5dd9	-0.2741535
206	0xbda97521	-0.08274294
207	0xbc5bcec7	-0.013415999
208	0x3c93d8f8	0.018047795
209	0xbedef853	-0.4354883
210	0x3d966a25	0.07344464
211	0x3e456dd3	0.19280176
212	0xbdda37db	-0.10655185
213	0xbc6ccf5c	-0.014453735
214	0xbd00ce7f	-0.03144693
215	0xbe30fee3	-0.17284732
216	0xbba7bf3a	-0.0051192315
217	0xbdce0ad1	-0.10060657
218	0xbed851ea	-0.42249995
219	0x3d3c8370	0.046023786
220	0x3e40aa2d	0.18814917
221	0xbd8974bd	-0.06711719
222	0x3e4adb28	0.19810164
223	0xbe80b0c8	-0.25134873
224	0x3e48d804	0.19613653
225	0x3e2cd491	0.16877963
226	0xbeba8904	-0.3643266
227	0x3ee90d07	0.45517752
228	0x3db5b5ce	0.08872567
229	0x3e24c3bc	0.16090292
230	0xbdbc841a	-0.09204884
231	0x3de3c648	0.111218035
232	0x3e8e2c36	0.27768105
233	0x3e863732	0.26213986
234	0x3e8e5962	0.2780257
235	0x3f4b62eb	0.7944781
236	0xbd037660	-0.032095313
237	0xbd33341b	-0.043750864
238	0xbe0ea96f	-0.13931821
239	0x3e234761	0.15945198
240	0xbe0cf307	-0.13764583
241	0x3eb4c10b	0.3530353
242	0xbef20cb7	-0.47275326
243	0x3e17b0a5	0.14813478
244	0x3e8b93d0	0.2726121
245	0x3ea7b1b1	0.32752755
246	0x3f1a424a	0.602574
247	0xba036ba2	-0.0005013292
248	0x3f2d6717	0.6773543
249	0x3f201555	0.6253255
250	0xbe3b0588	-0.18263829
251	0xbf16c384	-0.58892083
252	0xbe760920	-0.24026918
253	0xbea32335	-0.31862798
254	0x3de2bdaf	0.110713355
255	0x3f10a13e	0.56496036

att_src f4 [1, 1, 2]
0	0x3ff8c4f0	1.94351
1	0xc000875b	-2.0082614

att_dst f4 [1, 1, 2]
0	0x3eccdb43	0.40011033
1	0x3f3dad6f	0.74092764

bias f4 [2]
0	0x3da62965	0.08113364
1	0xbf06aa7d	-0.52603894

weight f4 [2, 48]
0	0x3f3a2281	0.727089
1	0x3f1fde5d	0.62448674
2	0x3e17e0f5	0.14831908
3	0x3de3481c	0.11097738
4	0x3f3dda9b	0.7416169
5	0x3dce8a7c	0.100850075
6	0xbf26d2ca	-0.6516539
7	0xbe6edbb9	-0.23326005
8	0xbd0a2a29	-0.033731613
9	0x3dd905a6	0.105967805
10	0x3e0d8e3d	0.13823791
11	0x3daef012	0.085418835
12	0x3dfa565c	0.12223503
13	0xbdb0bc0f	-0.08629619
14	0xbf30faed	-0.6913288
15	0xbdcf5d9f	-0.10125279
16	0x3cec6c86	0.028860342
17	0xbf85d928	-1.0456896
18	0xbe5f62ef	-0.21815084
19	0xbe28af71	-0.16473176
20	0x3f5c1fe3	0.85986155
21	0x3e097a75	0.1342562
22	0xbdd36de4	-0.10323694
23	0xbf1c7cf8	-0.6112819
24	0xbead8abb	-0.33894905
25	0x3e53cc28	0.20683348
26	0x3e26d41b	0.1629185
27	0x3e8af26d	0.2713808
28	0xbf37d62a	-0.71811163
29	0xbe9ebd82	-0.31003958
30	0x3ed95531	0.42447808
31	0x3e089e5e	0.13341662
32	0xbf529558	-0.8225913
33	0x3ebe4784	0.37163937
34	0xbea3579f	-0.31902787
35	0xbed565d6	-0.41679257
36	0xc02a18e6	-2.6577697
37	0x3e937458	0.287997
38	0x3d3cac5b	0.04606281
39	0xbc69881e	-0.014253644
40	0x3f555bc1	0.8334313
41	0xbe0cc365	-0.13746412
42	0x3da33dff	0.07970809
43	0x3e6de68a	0.23232475
44	0xbca50018	-0.020141646
45	0xbf161d67	-0.58638614
46	0x3f0529db	0.5201699
47	0x3c96e19f	0.018418131
48	0xbf8ea189	-1.1143047
49	0xbfce24a3	-1.6104931
50	0x3dbfa51e	0.093576655
51	0xbecbf182	-0.39832693
52	0x3ecc3600	0.3988495
53	0xbf9bc9df	-1.2170981
54	0x3d6e9301	0.058245663
55	0x3e27b21e	0.1637654
56	0xbd097d19	-0.033566568
57	0x3d2d64f8	0.04233262
58	0xc0028951	-2.0396311
59	0xbf90a7a7	-1.1301163
60	0xbf89b885	-1.0759436
61	0x3fa0d1f5	1.2564074
62	0x3d6fd143	0.058549177
63	0x3ff0de72	1.8817885
64	0x3f78a995	0.9713376
65	0xbef65fe2	-0.48120028
66	0xbfe29cb7	-1.7704076
67	0x3f58572a	0.84508
68	0x3d025c1a	0.031826116
69	0xbe25d1d6	-0.16193327
70	0x3f01afb7	0.50658745
71	0xbfa9d075	-1.3266741
72	0x3ee32f98	0.4437225
73	0xbe535ee0	-0.2064166
74	0xbe32e3e2	-0.17469743
75	0xbe911c64	-0.28341973
76	0x3e4c8234	0.19971544
77	0x3edd492f	0.43219897
78	0xbf3f52fe	-0.7473601
79	0xbe38630b	-0.18006532
80	0xbc74599b	-0.014913942
81	0xbe202fc9	-0.15643229
82	0x3fc1f482	1.5152743
83	0xbf31fee7	-0.69529575
84	0xbe9620f6	-0.29322022
85	0xbef497c1	-0.4777203
86	0x3ed06e00	0.40708923
87	0x3eabc2ab	0.33546957
88	0xbf8b3406	-1.0875251
89	0x3eb1847f	0.346714
90	0xbea248e3	-0.31696233
91	0xbee5daba	-0.44893438
92	0xbed9309c	-0.424199
93	0xbe975c04	-0.2956239
94	0xbf69bc3b	-0.9130284
95	0x3fab3c03	1.3377689

weight f4 [2, 16]
0	0x3c251620	0.010076076
1	0xbe1f2ffc	-0.15545648
2	0x3dbbd63c	0.09171721
3	0xbbd0c940	-0.006371647
4	0x3e68a102	0.2271767
5	0xbe0c1692	-0.13680485
6	0x3d7633e8	0.060108095
7	0xbe17876e	-0.14797756
8	0xbd83b5dc	-0.06431171
9	0x3b883c40	0.004157573
10	0xbde30f18	-0.11086863
11	0xbe28f232	-0.1649864
12	0x3e668614	0.22512084
13	0x3e6e3b9e	0.2326493
14	0xbdf74664	-0.12073973
15	0xbe345092	-0.1760886
16	0x3d773320	0.06035149
17	0xbca86290	-0.02055481
18	0x3e0ebd42	0.13939384
19	0xbe16980a	-0.14706436
20	0xbe63e8a8	-0.2225672
21	0x3d31fc00	0.043453217
22	0x3e4a2bf8	0.19743335
23	0x3de6a0d4	0.11261144
24	0x3d4a5088	0.049393207
25	0x3e715642	0.23568061
26	0x3ca13220	0.019677222
27	0xbe2f81e2	-0.1713939
28	0x3dbd4ce0	0.09243178
29	0xbe0a4068	-0.13501132
30	0xbe2cf3e0	-0.16889906
31	0xbe1a9b30	-0.15098262

bias f4 [2]
0	0x3da31a00	0.079639435
1	0xbc8798f0	-0.016552418
