src/GNN/best_model_2.pth (torch, 70662 bytes, 14 tensors)

att_src f4 [1, 3, 16]
0	0x3e4dda6f	0.20102857
1	0xbe99517d	-0.29944983
2	0x3e4d2e8f	0.20037292
3	0x3f38eaea	0.7223345
4	0xbf11b3d6	-0.5691503
5	0xbee01b35	-0.43770757
6	0xbf07cffb	-0.5305173
7	0x3eced934	0.40400088
8	0xbfa2b5d9	-1.2711746
9	0xbfb6578b	-1.4245466
10	0x3f6c1cf8	0.922317
11	0x3f278a98	0.6544585
12	0x3f74220a	0.9536444
13	0xbea8047e	-0.32815927
14	0xbe040088	-0.12890828
15	0xbf51ac3e	-0.81903446
16	0x3f476ea0	0.77903175
17	0xbf566178	-0.83742476
18	0xbc45975b	-0.012060012
19	0xbc8cd171	-0.017189713
20	0x3e8aaff8	0.27087379
21	0x3d9fb1b5	0.07797567
22	0x3c434b47	0.011919803
23	0xbd952470	-0.072823405
24	0xbb48486e	-0.003056075
25	0x3c6c0570	0.014405593
26	0xbffa8180	-1.957077
27	0x3ef4e6c4	0.4783231
28	0xbbb768d7	-0.0055972147
29	0xbf085fa2	-0.53270924
30	0x3e3dc125	0.1853071
31	0xbb56740e	-0.0032722983
32	0xbf622a62	-0.8834592
33	0xbf8e0ad7	-1.1097058
34	0xbdb6c019	-0.089233585
35	0x3efae40a	0.49002105
36	0x3f3aa20b	0.7290351
37	0xbf74924c	-0.9553573
38	0xbe4f6af0	-0.20255637
39	0x3ed66c11	0.41879323
40	0xbf438277	-0.7637095
41	0xbf664a93	-0.8995754
42	0xbf4be358	-0.79643774
43	0xbe616567	-0.22011338
44	0x38b5e868	8.6740416e-05
45	0xbf22ece7	-0.63642734
46	0x3c01d514	0.007924337
47	0xbf42344e	-0.7586106

att_dst f4 [1, 3, 16]
0	0x3eb3e50b	0.35135683
1	0xbebe6fcf	-0.37194678
2	0x3efefdc2	0.49802977
3	0xbef224d8	-0.47293735
4	0xbe734eb8	-0.23760498
5	0xbe6f0c2c	-0.23344487
6	0xbe8e6874	-0.27814066
7	0xbe781117	-0.2422527
8	0x3f2e9a13	0.6820385
9	0x3e52da7c	0.20591158
10	0xbdc7cf84	-0.09756377
11	0x3ebd1a63	0.36934194
12	0xbe6a6fc6	-0.228942
13	0x3f10d946	0.5658153
14	0xbe638088	-0.22217
15	0xbe25e140	-0.16199207
16	0xbd67583a	-0.056480624
17	0x3ef7feb8	0.48436522
18	0x3bdd34ad	0.006750664
19	0x3bf300df	0.0074158753
20	0x3e836ef5	0.2567059
21	0xbd4288ce	-0.04749375
22	0xbb6164e8	-0.003439242
23	0xbe4c0914	-0.19925338
24	0x3e046620	0.12929583
25	0xbbd98ad9	-0.0066388664
26	0xbe4411c1	-0.19147398
27	0x3e116656	0.14199194
28	0x3b0c1b30	0.002137851
29	0x3d833735	0.06407014
30	0xbe9894f1	-0.29801133
31	0xbbd8208d	-0.006595677
32	0x3d8270ba	0.06369157
33	0xbc4cd794	-0.01250257
34	0x3e3d90d0	0.18512273
35	0xbdd1db20	-0.10246873
36	0xbd36f473	-0.04466672
37	0x3d2d8207	0.042360332
38	0xbac01ce8	-0.0014657052
39	0x3e32f1d2	0.1747506
40	0xbd611fff	-0.054962154
41	0xbd163e64	-0.036680594
42	0xbc323984	-0.010877971
43	0xbd810e0e	-0.06301509
44	0xbb49bcdc	-0.0030782735
45	0x3e831321	0.25600532
46	0x3c169656	0.009191116
47	0xbdbddf14	-0.092710644

bias f4 [48]
0	0xbed2130f	-0.41030166
1	0x3f74971c	0.95543075
2	0xbf55f4e5	-0.83576804
3	0x3f0662b1	0.5249434
4	0x3f42192d	0.75819665
5	0x3f27190c	0.65272593
6	0x3f473703	0.77818316
7	0x3ea3f15f	0.3202009
8	0x3cdd41d0	0.02700892
9	0x3f2c0995	0.6720212
10	0x3e6d7123	0.2318769
11	0xbf7068ae	-0.9390973
12	0xbedd425d	-0.43214694
13	0xbf694e89	-0.9113546
14	0x3eea0a3a	0.45710927
15	0x3f006172	0.5014869
16	0x3d9ecdcf	0.077540986
17	0xbf336696	-0.7007841
18	0xbbebec80	-0.007199824
19	0xbb8afee7	-0.0042418125
20	0xbf331d92	-0.69966996
21	0xbda97132	-0.082735434
22	0x3b73d75c	0.0037207222
23	0x3bcf4a16	0.0063259704
24	0xbe8acfb9	-0.27111605
25	0x3bea9d59	0.0071598706
26	0x3ee62a85	0.44954315
27	0xbebca469	-0.36844185
28	0xbb072519	-0.0020621477
29	0xbd6b8b7a	-0.057506062
30	0x3f3ee7cb	0.7457244
31	0x3a8a4171	0.0010548068
32	0x3e7cf66f	0.24703382
33	0x3eed55f3	0.46354637
34	0xbf3b82ef	-0.73246664
35	0x3e4c9abc	0.19980901
36	0xbef314cb	-0.474768
37	0x3e79d4ac	0.24397534
38	0xbd4e5637	-0.05037519
39	0xbf123ffc	-0.5712888
40	0x3f047bf1	0.5175162
41	0x3ee8dfc9	0.45483235
42	0x3e9d102b	0.30676398
43	0x3e01f186	0.1268979
44	0x3b95fb00	0.0045770407
45	0xbef2e1de	-0.47437948
46	0xbb823ce1	-0.0039745425
47	0x3f2754c0	0.65363693

weight f4 [48, 6]
0	0x3c871635	0.016490081
1	0x3fa03081	1.2514802
2	0x3e374bbe	0.17899987
3	0xbe132f4e	-0.14373514
4	0xbf7839a6	-0.96962965
5	0x3f586cb4	0.8454087
6	0xbeda57bd	-0.42645064
7	0xbf0e20fc	-0.5551908
8	0x3bf4a215	0.0074656107
9	0xbd14032b	-0.036135834
10	0xbe046e43	-0.12932687
11	0xbf7c8c45	-0.98651534
12	0xbe86443d	-0.26223937
13	0x3f94da40	1.1629105
14	0x3e505482	0.20344737
15	0xbf1c64df	-0.6109142
16	0x3f2a1413	0.6643688
17	0x3fa5f27a	1.2964623
18	0xbe4e06ff	-0.20119856
19	0xbe96a12d	-0.29419842
20	0x3e2b5da9	0.16734947
21	0x3bea6e32	0.0071542496
22	0xc0263241	-2.5968173
23	0x3f8ae3ca	1.0850766
24	0xbeb705e9	-0.35746697
25	0xbe8fba7b	-0.2807196
26	0x3e476ba0	0.1947465
27	0xbc5fa730	-0.0136507
28	0x3b874f32	0.004129314
29	0xbfd3135a	-1.6490281
30	0xbd8de64a	-0.0692869
31	0xbe5eb69c	-0.21749347
32	0x3d007fb4	0.031371787
33	0xbd4078f7	-0.04699036
34	0xbe496257	-0.1966642
35	0xbfb187b2	-1.3869536
36	0x3e7d0a88	0.24711049
37	0xbe98544f	-0.29751822
38	0x3ce7e13c	0.028305642
39	0xbe6ab824	-0.22921807
40	0xbe141670	-0.14461684
41	0xbfed8fa5	-1.8559462
42	0xbd643a06	-0.055719398
43	0xbe56e27e	-0.20984837
44	0xbe6ec410	-0.2331698
45	0xbea19dab	-0.31565604
46	0xbf0ba521	-0.5454884
47	0x3f78fd77	0.97261757
48	0x3ced5385	0.02897049
49	0x40129145	2.2901165
50	0x3e34e717	0.17666279
51	0xbd2a860c	-0.041631743
52	0x3d0e7838	0.03478262
53	0xc01d93ad	-2.4621384
54	0xbe01a482	-0.12660411
55	0x3f9ae8a3	1.2102245
56	0xbd156705	-0.0364752
57	0xbd3878b6	-0.045036994
58	0x3e4fcb47	0.20292388
59	0xc0429886	-3.0405593
60	0x3da8d628	0.08243972
61	0xbf8dfd5a	-1.1092942
62	0x3e1dac88	0.15397847
63	0x3dbf5447	0.093422465
64	0x3ef6e811	0.48223928
65	0x3ff00f62	1.8754694
66	0x3e73b9be	0.23801324
67	0x3e424609	0.18972029
68	0xbdc4b0ab	-0.09604009
69	0x3ed5afaa	0.41735584
70	0x3ea5d62a	0.32389957
71	0x3fe5dfd1	1.7958928
72	0x3ec462f1	0.38356736
73	0xbfa24b3c	-1.267921
74	0x3e29345e	0.16523883
75	0xbd7dd9ed	-0.06197541
76	0x3d829c60	0.063774824
77	0x3fd70181	1.6797334
78	0xbe764087	-0.24048053
79	0x3fa2c1c8	1.2715387
80	0xbdffc435	-0.124885954
81	0x3e3407a9	0.17581047
82	0x3f256edc	0.64622283
83	0x3ea77db8	0.32713103
84	0xbf180865	-0.5938781
85	0xbf18b49f	-0.59650606
86	0x3e9165a4	0.28397858
87	0xbed5a826	-0.4172985
88	0x3f41e9e6	0.75747526
89	0xbea50b95	-0.322354
90	0x3f171f06	0.59031713
91	0xbe0b06d6	-0.13576826
92	0xbe224ba1	-0.15849163
93	0x3cdc9b14	0.026929416
94	0x3d746e17	0.059675302
95	0xc018dba8	-2.3884068
96	0x3d13c771	0.036078874
97	0xbf0e61b8	-0.55617857
98	0x3e7c32ef	0.24628805
99	0xbed41fff	-0.4143066
100	0x3da2cd38	0.079492986
101	0x3f6ab430	0.91681194
102	0xbde68074	-0.11254969
103	0x3fe64075	1.7988421
104	0x3d69913b	0.05702327
105	0x3e6bb6b0	0.23018909
106	0x3e8fda55	0.28096262
107	0x3dd78366	0.10523109
108	0x3b8e054b	0.004334127
109	0x3a9a1469	0.001175535
110	0x3aa5f008	0.0012660036
111	0x3bb6861d	0.005570187
112	0xbb447eb9	-0.002998276
113	0x3b8d1e65	0.004306602
114	0xb8e7aa65	-0.00011046677
115	0xbad1a911	-0.001599582
116	0x3c2e5315	0.0106399255
117	0x3a89995a	0.0010497973
118	0xbb83c440	-0.0040211976
119	0xbbfd52fc	-0.00773084
120	0x3e971c02	0.29513556
121	0x3f3743e0	0.71587944
122	0xbea67a2b	-0.32515082
123	0x3e813c72	0.2524143
124	0x3e5a7718	0.21334493
125	0x3fb59739	1.4186774
126	0xbd136c30	-0.035991848
127	0xbe8ae706	-0.27129382
128	0x3d41ee6d	0.04734652
129	0xbe04e696	-0.12978587
130	0x3fa38569	1.2775089
131	0xbfb05f85	-1.377915
132	0xbba85c1b	-0.005137933
133	0xb7c03028	-2.2910608e-05
134	0xbb54021f	-0.0032349897
135	0xbb08fc64	-0.002090239
136	0x3bac04ce	0.005249596
137	0xb9d310fa	-0.00040257705
138	0x3e1705d9	0.14748324
139	0x3eea1802	0.45721442
140	0x3eaaff6c	0.33397996
141	0xbfd42bc2	-1.6575854
142	0xbf016eb8	-0.5055957
143	0x3e625e12	0.22106197
144	0x3d50913f	0.050919767
145	0x3df41c9e	0.11919521
146	0x3de7e472	0.11322869
147	0x3e576f4b	0.21038549
148	0x3cea5499	0.028604792
149	0x3e192e97	0.14959179
150	0xbb37aa27	-0.0028025003
151	0xba48fc6a	-0.0007667007
152	0x3a6a2e4b	0.000893329
153	0xbc118e5f	-0.008884042
154	0x3ae2aba5	0.0017293586
155	0xbbd5136a	-0.0065025585
156	0x3d83caa5	0.06435136
157	0x3f761ff3	0.961425
158	0xbd5fc17e	-0.054627888
159	0xbd7f815a	-0.06237922
160	0xc03d9a1d	-2.9625313
161	0xbf2cc06c	-0.6748111
162	0xbe330b38	-0.17484748
163	0x396d635c	0.00022639096
164	0x3e7aa041	0.24475195
165	0xbdbfc908	-0.093645155
166	0x3ea55cb0	0.32297277
167	0x3f6ecc02	0.9328004
168	0x3a27bc09	0.0006398564
169	0x3aea567b	0.0017878556
170	0xbb87b044	-0.0041408855
171	0x3bd4941f	0.006487384
172	0xbb4fffc1	-0.0031738135
173	0x3b82c332	0.0039905543
174	0x3e9ff304	0.31240094
175	0x3e88d373	0.26723823
176	0x3e0ae25f	0.13562916
177	0x3e6aa92b	0.22916095
178	0xbef16258	-0.47145343
179	0xbf405542	-0.75130093
180	0xbea19f39	-0.3156679
181	0xbf5cff57	-0.8632712
182	0xbdce324d	-0.10068188
183	0xbc0afd97	-0.008483312
184	0xbf448618	-0.7676711
185	0x3ecd4f42	0.4009953
186	0xbb652a43	-0.0034967817
187	0x3a7b4744	0.00095855095
188	0xbca8f896	-0.020626348
189	0x3c705288	0.0146681145
190	0x3ba4b512	0.005026468
191	0x3c46f5dc	0.012143578
192	0x3d8d4507	0.068979315
193	0xbff97c05	-1.9490973
194	0xbda7d705	-0.081953086
195	0x3eed8322	0.4638911
196	0x3e227c1d	0.15867658
197	0x3f5f5c5f	0.8725032
198	0x3cebac73	0.028768754
199	0xc017da9c	-2.3727179
200	0x3d9704f6	0.07373993
201	0xbcca4650	-0.02469173
202	0x3dc1b69f	0.0945866
203	0x3f5d7c21	0.8651753
204	0x3f2ebbfa	0.6825558
205	0x3f0eadaf	0.5573377
206	0xbbc04a8f	-0.005868263
207	0xbe467ed0	-0.19384313
208	0x3f40943b	0.7522618
209	0xbeee9d1c	-0.4660424
210	0xbe5c3327	-0.21503888
211	0x3e064075	0.13110526
212	0xbad5b527	-0.0016304598
213	0x3de2ff01	0.110837944
214	0xbf248074	-0.64258504
215	0x3feb1758	1.8366499
216	0x3e954dba	0.29160863
217	0x3f1751bf	0.5910911
218	0x3cbdcff9	0.023170458
219	0x3f243817	0.64148086
220	0xbf274f32	-0.6535522
221	0x3d050c6f	0.03248256
222	0xbd2b3022	-0.04179395
223	0xbfeefb41	-1.8670427
224	0x3dd498a7	0.103806786
225	0x3e5f04b9	0.21779145
226	0x3e6caf18	0.23113668
227	0x3eb8367b	0.35979065
228	0x3de17090	0.11007798
229	0xbf438ce0	-0.76386833
230	0x3eda9a07	0.4269564
231	0x3f1b020f	0.60550016
232	0xbe60bd71	-0.21947266
233	0xbf9e33f4	-1.2359605
234	0x3ec6a6b8	0.3879907
235	0x3f91f46a	1.1402714
236	0xbc3136ca	-0.010816285
237	0x3e3ffb48	0.187482
238	0x3eba046a	0.36331493
239	0x3fd7c75d	1.6857716
240	0x3d89e006	0.06732182
241	0xbfd6cb27	-1.6780747
242	0xbd321442	-0.04347635
243	0xbe73011e	-0.23730895
244	0x3c8898aa	0.016674358
245	0x3e00a476	0.12562737
246	0x3e483fd4	0.19555598
247	0xbfeb44f6	-1.838042
248	0xbccc21ec	-0.024918519
249	0xbeb76a5b	-0.3582333
250	0x3dedf53e	0.11619042
251	0x3e75920a	0.2398149
252	0x3dc4860a	0.095958784
253	0xbfcd73a1	-1.6050912
254	0x3ca06e20	0.019583762
255	0xbe2e6148	-0.17029297

att_src f4 [1, 3, 16]
0	0xbf2686b1	-0.6504927
1	0x3ae51b3f	0.0017479433
2	0xbb3db12b	-0.0028944712
3	0xbfa8e8bf	-1.3196028
4	0xbf2f5077	-0.68482155
5	0x3f631e9e	0.88718593
6	0xbf864bd0	-1.0491886
7	0xbeeb08ab	-0.4590505
8	0xbb17bd7d	-0.0023153715
9	0xbb01ddf3	-0.001981613
10	0xbe58cd5f	-0.21172093
11	0x3e80fdfa	0.2519377
12	0x3fea8f18	1.8324919
13	0xbfdb9fa0	-1.7158089
14	0xbfad64a8	-1.3546343
15	0xc0013b98	-2.0192623
16	0x3e4909c8	0.19632638
17	0xbf0579a7	-0.5213875
18	0xbf0454cd	-0.51691896
19	0xbf2a2477	-0.6646189
20	0x3e91abab	0.28451285
21	0xbb820bf5	-0.0039687105
22	0xbe60c45b	-0.21949904
23	0xbdb36a26	-0.087604806
24	0x3b78064e	0.0037845555
25	0xbbd63140	-0.006536633
26	0xbbe27454	-0.00691084
27	0xbb73cb34	-0.0037199976
28	0xbf256380	-0.6460495
29	0x3b6f19ef	0.0036483963
30	0x3fac361a	1.345401
31	0xbb902d35	-0.0043999203
32	0xbe50fc2b	-0.20408694
33	0x3b109aa2	0.0022064825
34	0xbf3bbec4	-0.7333796
35	0xbedbea34	-0.4295212
36	0xbf11b4b2	-0.56916344
37	0xb9f2f2b9	-0.0004633868
38	0xbe64bc81	-0.22337534
39	0x3aef95fd	0.0018278953
40	0x3db1734e	0.08664571
41	0x3adf0e90	0.001701789
42	0x3e65a572	0.22426394
43	0xb9f37e19	-0.00046442522
44	0x3d57ebb6	0.052715026
45	0xbf075363	-0.52861613
46	0xbdb467cf	-0.088088624
47	0xbf209f70	-0.6274328

att_dst f4 [1, 3, 16]
0	0xbe950db5	-0.2911202
1	0xbd842549	-0.06452424
2	0xbcc8e626	-0.024523806
3	0x3c1b6c06	0.009486204
4	0x3c69518d	0.014240635
5	0x3e1fa541	0.15590383
6	0x3d585753	0.052817654
7	0xbd1b9bc7	-0.037990358
8	0xbcc365df	-0.023852287
9	0xbcbf1f6a	-0.02333041
10	0x3e067236	0.13129506
11	0x3c09af7e	0.008403657
12	0xbde75e81	-0.11297322
13	0x3bbbf5ba	0.00573608
14	0xbaec8318	-0.001804444
15	0xbba5893c	-0.00505176
16	0x3da7d3fd	0.081947304
17	0x3f436e23	0.7633993
18	0x3eb1f9bb	0.34760842
19	0xbe726a0d	-0.23673268
20	0xbf6cef09	-0.9255224
21	0x3d4f4ebc	0.050612196
22	0x3d5a2ae3	0.053263556
23	0x3e1cc1ef	0.15308355
24	0x3a6d7ccb	0.0009059428
25	0x3d44e101	0.048066143
26	0x3d38c8fc	0.04511355
27	0x3b8f5d4c	0.0043751355
28	0x3d2c1458	0.04201159
29	0x3ac6402d	0.0015125327
30	0xbe901f7b	-0.28149018
31	0x3d4e82f5	0.05041786
32	0xbeb08d1d	-0.3448266
33	0x3ae91f1f	0.0017785764
34	0x3f4b5191	0.79421335
35	0x3e9f5a15	0.31123415
36	0xbf3ade7e	-0.72995746
37	0xbc1dc555	-0.009629567
38	0xbf39b0fe	-0.72535694
39	0x3b89eb07	0.0042089256
40	0xbf1aa2b0	-0.6040449
41	0x3b44359a	0.0029939176
42	0xbeccc2fe	-0.39992517
43	0xbc1eadbb	-0.009684975
44	0xbefb3a41	-0.49067882
45	0x3dfe048e	0.124032125
46	0xbf0ec016	-0.5576185
47	0xbd1ad537	-0.037800994

bias f4 [48]
0	0xbe9f80da	-0.31152993
1	0xbe583b90	-0.21116471
2	0x3b670048	0.003524797
3	0xbdf50a3b	-0.11964842
4	0xbe4c3e3d	-0.19945617
5	0x3e94fb95	0.29098192
6	0x3ec3c1e3	0.3823386
7	0x3defdb7f	0.117117874
8	0x3b82d5f9	0.0039927927
9	0x3b8916eb	0.0041836402
10	0xbef91984	-0.4865228
11	0xbcec0324	-0.028810091
12	0xbed5ee45	-0.41783348
13	0x3ee822fe	0.45339197
14	0x3f022487	0.50836986
15	0x3f12447d	0.57135755
16	0xbe03be2e	-0.12865517
17	0xbecb13c4	-0.39663517
18	0x3d928a75	0.07155315
19	0x3d181a38	0.03713438
20	0xbee86c78	-0.45395255
21	0xbb7d6279	-0.003866343
22	0xbe09d01b	-0.13458292
23	0xbd3b0f5c	-0.045668945
24	0x3c357f0a	0.011077652
25	0xbb6ac688	-0.00358239
26	0xbb8727ed	-0.0041246326
27	0xbc4aa654	-0.012368757
28	0xbd841405	-0.06449131
29	0x3c37b24e	0.011211945
30	0xbe0783c8	-0.13233864
31	0xbb834010	-0.0040054396
32	0x3e06f161	0.13178016
33	0xb9828530	-0.00024894765
34	0xbccd8c89	-0.025091426
35	0x3e0566ae	0.1302745
36	0xbf448e42	-0.7677957
37	0xbac39671	-0.0014922154
38	0xbe05b92a	-0.13058916
39	0xba86d078	-0.0010285517
40	0xbe2b7732	-0.16744688
41	0x390feebb	0.00013726477
42	0x3d2bf996	0.04198607
43	0xbad46a08	-0.0016205916
44	0x3dcd5839	0.10026593
45	0xbd99a016	-0.07501237
46	0xbe41b9b2	-0.18918493
47	0xbe13bbde	-0.14427134

weight f4 [48, 48]
0	0x3f0296b3	0.510112
1	0xbe4f754c	-0.20259589
2	0x3dd0a3d5	0.101874985
3	0x3fa4e26e	1.2881601
4	0xbe5d3472	-0.21602038
5	0xbced9694	-0.029002465
6	0xbd02c575	-0.03192659
7	0x3ea17924	0.31537735
8	0xbe4b3bf1	-0.19847085
9	0xbe8b4935	-0.2720429
10	0xbee4feaf	-0.44725558
11	0xbe07ba98	-0.13254774
12	0x3e3899b9	0.1802739
13	0xbe5a786f	-0.21335004
14	0xbebaa5dc	-0.36454666
15	0xbd1197e6	-0.035545252
16	0x3ba3296c	0.004979303
17	0x3e4f311d	0.20233579
18	0x3b3725ae	0.0027946043
19	0xbbd498c4	-0.0064879376
20	0xbd387b7b	-0.045039635
21	0xbf01eec9	-0.5075498
22	0xbac48ce2	-0.00149956
23	0xbec164e3	-0.37772283
24	0x3dc4018f	0.0957061
25	0xbba824f2	-0.0051313573
26	0x3fce55ce	1.6119936
27	0x3e3bc5a2	0.1833711
28	0xbbb28c60	-0.005448863
29	0x3e94c87a	0.290592
30	0x3e94f0b8	0.29089904
31	0x3cab2280	0.020890474
32	0xbde8989e	-0.113572344
33	0x3e22ddca	0.15904918
34	0xbd483fe7	-0.048889067
35	0xbe8c6f5c	-0.2742871
36	0x3dca5639	0.09879727
37	0x3d0668e5	0.03281488
38	0x3e2b960d	0.16756459
39	0xbf2b2d89	-0.66866356
40	0x3e4a2269	0.19739689
41	0x3e2ecc03	0.17070012
42	0x3dda03e3	0.106452726
43	0xbd445518	-0.047932714
44	0x3c8272c6	0.015923869
45	0xbe2efa2d	-0.17087622
46	0x3c50bc6c	0.012740236
47	0x3e9f3dd1	0.3110185
48	0x3dbff76b	0.09373363
49	0x3d79439a	0.060855485
50	0x3e835d6c	0.25657213
51	0x3e12898e	0.14310285
52	0x3e919296	0.2843215
53	0x3e273fbc	0.16332906
54	0x3e738232	0.23780134
55	0xbdcbf469	-0.09958727
56	0x3f25b1ec	0.6472461
57	0x3f431f0f	0.76219267
58	0xbf2a9792	-0.6663753
59	0xbf0da890	-0.5533533
60	0xbef3f1d0	-0.47645426
61	0x3e0256ab	0.12728374
62	0x3e4e6fa7	0.2015978
63	0x3e9fec2c	0.31234872
64	0xbd094303	-0.033511173
65	0xbd909cc0	-0.07061148
66	0x3a7f6a60	0.0009743329
67	0x3b060ba4	0.0020453716
68	0xbef36ec7	-0.47545454
69	0x3efa2890	0.48859072
70	0xb8983ab0	-7.258856e-05
71	0x3d972f0a	0.07382019
72	0xbe2c4f51	-0.16827132
73	0x3a3d50a2	0.0007221793
74	0xbe2a5f1c	-0.16637844
75	0xbcc5d664	-0.024150081
76	0x3c673ef4	0.01411413
77	0x3d6f2dcf	0.058393296
78	0xbd995ecf	-0.074887864
79	0xbc0fb767	-0.008771754
80	0xbd913abc	-0.07091281
81	0xbcdb689b	-0.026783278
82	0xbdb65a7f	-0.089039795
83	0xbef5a194	-0.47974837
84	0xbedea167	-0.43482515
85	0x3e1f849b	0.15577929
86	0x3e8fe637	0.28105327
87	0xbf58ed4d	-0.8473709
88	0x3dd076eb	0.10178932
89	0x3d3d0a7f	0.046152588
90	0x3d7261ee	0.059175424
91	0xbe5ef7bd	-0.21774192
92	0x3aad730e	0.0013233142
93	0x3eadd542	0.33951765
94	0x3c21c745	0.00987417
95	0x3e11bcea	0.14232221
96	0x3bc0227c	0.005863486
97	0x393c2b85	0.0001794529
98	0xbc24473a	-0.010026747
99	0x3c57f3f7	0.013180724
100	0x3b903b77	0.00440162
101	0x3b3a8687	0.0028461532
102	0x3be33e75	0.0069349357
103	0x3bc4a7ee	0.006001464
104	0x3b14d3de	0.002270929
105	0x3b6146ae	0.0034374404
106	0xbbf84fd9	-0.007577878
107	0xbc7874ae	-0.015164537
108	0x3b61ba79	0.0034443422
109	0xbc52b86c	-0.012861352
110	0xbbb310f4	-0.0054646675
111	0xbb097028	-0.0020971391
112	0x3a2a9172	0.00065066584
113	0xbacb1d99	-0.0015496492
114	0x3a632451	0.00086647744
115	0x39e018fa	0.00042743218
116	0xbca78c31	-0.02045259
117	0x3cb36092	0.021896634
118	0x3743442e	1.163878e-05
119	0x3c3ad0d6	0.011402329
120	0x3ad0ebe4	0.0015939442
121	0xbaaae744	-0.0013038893
122	0xbc8cb214	-0.017174758
123	0xbacfc461	-0.0015851372
124	0x39592930	0.00020710076
125	0xbae81f97	-0.001770961
126	0xbc8ada9c	-0.016949944
127	0x3abd0684	0.0014421497
128	0xbc35e3f2	-0.01110171
129	0xbc09fb1a	-0.008421684
130	0xbbcfa67d	-0.0063369856
131	0x3b2b6dda	0.0026158006
132	0x3a89e036	0.001051909
133	0xbc174c75	-0.009234537
134	0x3b93bcc7	0.004508588
135	0xbacf36c9	-0.0015809174
136	0xbbe1dfe4	-0.006893145
137	0xbb9984b5	-0.0046850094
138	0xbbabc81a	-0.00524236
139	0x3aeafc7e	0.0017928032
140	0xba399acd	-0.0007080257
141	0xbbc13e17	-0.0058972943
142	0xbac88833	-0.001529938
143	0xbc3cf89a	-0.011533881
144	0x3deb3f00	0.11486626
145	0xbda822aa	-0.08209737
146	0x3cb30b59	0.021855997
147	0x3e9d711a	0.30750352
148	0x3c34f123	0.01104382
149	0x3c2f4b5b	0.0106991185
150	0x3d9abb44	0.07555249
151	0x3da9ee7d	0.08297441
152	0xbeb36bd5	-0.35043207
153	0xbdc9541d	-0.098304965
154	0xbe369a6e	-0.17832348
155	0x3e0e2f63	0.13885264
156	0x3e9435a6	0.2894718
157	0x3deab07c	0.11459443
158	0xbca0be4d	-0.019621992
159	0x3e7ee9b1	0.24893834
160	0xbd0f02d0	-0.03491479
161	0xbdcaf935	-0.09910814
162	0x3c812bd8	0.015767977
163	0x3c73374b	0.014844726
164	0xbc4d44f7	-0.0125286495
165	0x3e554f7e	0.20831105
166	0xbc64505c	-0.013935175
167	0xbdf20441	-0.118172176
168	0x3d74cf5a	0.05976806
169	0xbc880834	-0.016605474
170	0x3de38876	0.11110012
171	0x3da3c48c	0.07996473
172	0x3c8938e1	0.016750755
173	0xbc43fd12	-0.011962192
174	0x3c1bb21c	0.009502914
175	0xbb063978	-0.0020481031
176	0x3ea0885e	0.3135404
177	0x3ef7d6bf	0.48406026
178	0x3e902a7d	0.28157416
179	0xbed55f70	-0.41674376
180	0xbe249140	-0.16071033
181	0x3ec269a5	0.37971225
182	0x3e96e891	0.2947431
183	0xbee066a9	-0.43828323
184	0x3ee443c4	0.4458295
185	0x3f05dd1c	0.5229051
186	0x3ecc1dd3	0.39866504
187	0x3ee4982a	0.44647342
188	0xbc30b113	-0.010784405
189	0x3e918a61	0.28425887
190	0xbba11b30	-0.004916571
191	0x3f05d97e	0.5228499
192	0x3d6eb035	0.058273513
193	0xbe9092f9	-0.2823713
194	0xbeee3fb5	-0.4653298
195	0xbef2aac0	-0.47395897
196	0xbe9c4ce5	-0.30527416
197	0xbe0ef02c	-0.13958806
198	0x3cd52282	0.026017431
199	0x3e45cca8	0.19316351
200	0xbebbf9ec	-0.36714113
201	0xbe9f821d	-0.31153956
202	0xbd4df96c	-0.050286695
203	0x3e81a0f5	0.25318113
204	0x3ee6a881	0.45050433
205	0xbe5a6d8e	-0.21330854
206	0xbe93bae0	-0.28853512
207	0x3db3ad0a	0.08773239
208	0x3e8e5713	0.27800807
209	0xbe4a98ae	-0.19784805
210	0x3ce22b47	0.027608527
211	0x3ca200b9	0.019775735
212	0xbcdd5e11	-0.027022393
213	0xbcee8c17	-0.029119534
214	0xbcca814c	-0.024719857
215	0x3ef6be81	0.48192218
216	0x3dd86683	0.105664276
217	0xbcf39d8a	-0.029738206
218	0xbf22669f	-0.6343784
219	0x3e7d79ff	0.24753569
220	0x3c01820e	0.007904543
221	0xbdbce944	-0.092241794
222	0xbe27a158	-0.16370142
223	0xbc5f7fad	-0.01364128
224	0x3e0d9cda	0.13829365
225	0x3ddf63c8	0.10907704
226	0xbe66f991	-0.2255614
227	0x3f0a58fa	0.5404202
228	0x3e76c885	0.2409993
229	0x3d23554f	0.03987628
230	0xbe2b10ca	-0.16705623
231	0x3e6b4ea2	0.22979215
232	0x3e204b87	0.15653811
233	0x3e92267f	0.28544995
234	0x3e683330	0.22675776
235	0x3f910c4a	1.1331875
236	0xbc8e5f9c	-0.017379574
237	0xbe06085f	-0.13089131
238	0xbd034e49	-0.03205708
239	0xbd8238bd	-0.06358478
240	0xbc5b7e21	-0.013396771
241	0x3ea10282	0.31447226
242	0xbf2afe23	-0.6679403
243	0x3ca27fde	0.019836362
244	0x3e8e2fb5	0.27770773
245	0x3eaae5c7	0.3337843
246	0x3eeb6c3f	0.45981023
247	0xbe34953b	-0.17635052
248	0x3f56382c	0.8367946
249	0x3f399280	0.72489166
250	0xbe28ef31	-0.16497494
251	0xbeb50859	-0.3535793
252	0xbed85ede	-0.42259878
253	0xbe7c1851	-0.24618651
254	0xbe0b3e23	-0.13597922
255	0x3f0922ba	0.53568614

att_src f4 [1, 1, 2]
0	0x3fd61e4e	1.6727998
1	0xbec341c7	-0.38136122

att_dst f4 [1, 1, 2]
0	0x3e5dadc2	0.21648315
1	0xbf7a0ff0	-0.9768057

bias f4 [2]
0	0xbd896c09	-0.06710059
1	0xbef4b458	-0.4779384

weight f4 [2, 48]
0	0x3ef4c356	0.4780528
1	0x3ea88287	0.32912084
2	0xba6be875	-0.00089991774
3	0x3debe120	0.115175486
4	0x3f7a1972	0.97695076
5	0xbe03d37d	-0.12873645
6	0xbef2b9e2	-0.47407442
7	0xbad01cf2	-0.0015877767
8	0xba9c836a	-0.001194102
9	0xbaa6255e	-0.0012675931
10	0xbe88ab52	-0.26693207
11	0x3d38885e	0.045051925
12	0xbd847bf4	-0.06468955
13	0xbdd7abe2	-0.10530831
14	0xbf059a83	-0.5218889
15	0xbe02def8	-0.12780368
16	0x3e6cb9c6	0.23117742
17	0xbf84d9e4	-1.0378995
18	0xbeb20d41	-0.34775737
19	0xbe8d2b20	-0.27571964
20	0x3f5f6d1a	0.8727585
21	0xba20da27	-0.0006136023
22	0x3d46ef31	0.048567954
23	0xbf1fe2b1	-0.6245528
24	0xbad4e3f1	-0.0016242248
25	0xb82efe86	-4.1721876e-05
26	0x3926647d	0.00015868428
27	0x3af9de46	0.0019063435
28	0xbf07f086	-0.53101385
29	0xbace1423	-0.0015722554
30	0x3e37d76e	0.17953274
31	0xba0a8fec	-0.0005285728
32	0xbf8be14a	-1.0928128
33	0x3ac93594	0.001535105
34	0xbe786528	-0.24257338
35	0xbeb6edc1	-0.35728267
36	0xc02eb55c	-2.7298193
37	0x3881b347	6.184592e-05
38	0x3e7e9889	0.24862875
39	0x3a879132	0.0010342954
40	0x3f4144be	0.7549552
41	0x3aaaab0c	0.0013020947
42	0xbbd873b9	-0.006605592
43	0x38370e39	4.3643846e-05
44	0xbcda4330	-0.026643366
45	0xbf3bab3b	-0.7330815
46	0x3ee47dfb	0.44627365
47	0x3ea5a326	0.32351035
48	0xbf8eeb06	-1.1165473
49	0xbfb53059	-1.415538
50	0x3ba5f4ef	0.0050645988
51	0xbe96b72f	-0.29436633
52	0x3e518689	0.20461477
53	0xbfb0c9a4	-1.3811536
54	0xbe056ef7	-0.13030611
55	0xbcc0f120	-0.023552477
56	0x3bb48e4c	0.005510127
57	0x3bbd3844	0.0057745297
58	0xbfe66e0a	-1.8002331
59	0xbf9080bf	-1.128929
60	0xbf6c526d	-0.9231327
61	0x3fa1dead	1.264608
62	0xbe4fd1c9	-0.2029487
63	0x3ff37160	1.9018974
64	0x3f329831	0.69763476
65	0xbef59d42	-0.4797154
66	0xbfdb7a32	-1.7146666
67	0x3f500540	0.8125801
68	0x3e2d74d1	0.16939093
69	0xb9e3bc53	-0.00043437126
70	0x3e89d303	0.26918802
71	0xbfba5be1	-1.4559289
72	0x3baae3cf	0.005215145
73	0xbb25ead1	-0.0025316963
74	0xbb4b45f0	-0.0031017028
75	0xbb8e627e	-0.0043452373
76	0x3e8cc302	0.2749253
77	0x3bab74f8	0.0052324496
78	0xbefa092d	-0.48835126
79	0xba5b506e	-0.0008366172
80	0xbc75380e	-0.014966978
81	0xba804819	-0.0009787112
82	0x3fc1eaae	1.5149744
83	0xbf18a415	-0.5962537
84	0xbe81dce4	-0.2536384
85	0xbad1c628	-0.001600449
86	0x3ec3a43c	0.38211238
87	0xb6fe93ba	-7.5869875e-06
88	0xbf8f6041	-1.1201249
89	0xba216f04	-0.0006158205
90	0xbc8e758c	-0.017390035
91	0xbae7a9e4	-0.0017674533
92	0xbd201799	-0.039085004
93	0xbe2ebdc5	-0.17064579
94	0xbf567a69	-0.83780533
95	0x3f962421	1.1729776

weight f4 [2, 16]
0	0x3c251620	0.010076076
1	0xbe1f2ffc	-0.15545648
2	0x3dbbd63c	0.09171721
3	0xbbd0c940	-0.006371647
4	0x3e68a102	0.2271767
5	0xbe0c1692	-0.13680485
6	0x3d7633e8	0.060108095
7	0xbe17876e	-0.14797756
8	0xbd83b5dc	-0.06431171
9	0x3b883c40	0.004157573
10	0xbde30f18	-0.11086863
11	0xbe28f232	-0.1649864
12	0x3e668614	0.22512084
13	0x3e6e3b9e	0.2326493
14	0xbdf74664	-0.12073973
15	0xbe345092	-0.1760886
16	0x3d773320	0.06035149
17	0xbca86290	-0.02055481
18	0x3e0ebd42	0.13939384
19	0xbe16980a	-0.14706436
20	0xbe63e8a8	-0.2225672
21	0x3d31fc00	0.043453217
22	0x3e4a2bf8	0.19743335
23	0x3de6a0d4	0.11261144
24	0x3d4a5088	0.049393207
25	0x3e715642	0.23568061
26	0x3ca13220	0.019677222
27	0xbe2f81e2	-0.1713939
28	0x3dbd4ce0	0.09243178
29	0xbe0a4068	-0.13501132
30	0xbe2cf3e0	-0.16889906
31	0xbe1a9b30	-0.15098262

bias f4 [2]
0	0x3da31a00	0.079639435
1	0xbc8798f0	-0.016552418
