src/GNN/final_model_4.pth (torch, 70680 bytes, 14 tensors)

att_src f4 [1, 3, 16]
0	0x3eb14122	0.34620005
1	0xbf699a5e	-0.9125117
2	0x3f65b3ce	0.89727485
3	0x3e74e533	0.23915558
4	0xbf1628c2	-0.5865594
5	0xbeee8f6f	-0.46593806
6	0xbefe974a	-0.497248
7	0x3e46e36d	0.19422694
8	0xbf465afe	-0.77482593
9	0xbfd21b70	-1.6414623
10	0x3f9b1669	1.2116214
11	0x3f76198b	0.96132725
12	0x3f3f5f47	0.74754757
13	0x3e56346b	0.20918433
14	0xbe047f8d	-0.12939282
15	0xbf58aae7	-0.84635776
16	0xbf0e0979	-0.55483204
17	0xbf060bab	-0.52361554
18	0x3edb6ef9	0.42858103
19	0xbe316268	-0.17322695
20	0xbf720d76	-0.9455179
21	0x3f23e072	0.6401435
22	0x3f2e603a	0.6811558
23	0xbf06ba34	-0.52627873
24	0xbf6e09a5	-0.92983466
25	0x3f4b5ac9	0.794354
26	0xbe973a07	-0.2953646
27	0xbfcc1192	-1.5942862
28	0x3e92d440	0.2867756
29	0x3f778d2c	0.96699786
30	0x3e2e3efa	0.17016211
31	0x3dc4015b	0.09570571
32	0xbfc24a9c	-1.5179019
33	0xc031ed5e	-2.7801127
34	0x3f0c2b27	0.54753345
35	0x3f5568be	0.8336295
36	0x3f7a6435	0.97809154
37	0xbff07ce8	-1.8788118
38	0xbfb04c95	-1.3773371
39	0x4005408e	2.082065
40	0xbfccc00a	-1.5996106
41	0xc006cd9c	-2.1062994
42	0xbfc728bb	-1.5559305
43	0xbf191214	-0.5979321
44	0x3f0086e5	0.5020583
45	0xbe92323f	-0.2855396
46	0x3f0ea18b	0.55715245
47	0xc00a85b4	-2.1644106

att_dst f4 [1, 3, 16]
0	0x3da47e31	0.080318816
1	0xbdc6372a	-0.096784905
2	0x3d8ee5e5	0.06977443
3	0xbe0bed8f	-0.1366484
4	0xbca92b27	-0.02065046
5	0xbd0736cf	-0.033011254
6	0xbd229668	-0.03969422
7	0xbd961421	-0.07328058
8	0x3e30aa33	0.17252426
9	0xbb2a7a7c	-0.0026012948
10	0x3c06f5ee	0.008237345
11	0x3df5d1a7	0.12002879
12	0xbd2abbad	-0.041682888
13	0x3e43f5b2	0.19136694
14	0xbd9f0512	-0.07764639
15	0x3d3e4835	0.04645558
16	0x3edf0d87	0.43565008
17	0x3f514240	0.81741714
18	0xbec5709e	-0.38562483
19	0xbe815485	-0.25259796
20	0x3f9c1c61	1.219616
21	0xbf09910d	-0.53736955
22	0xbf26d6b2	-0.6517135
23	0x3ed29a50	0.41133356
24	0x3f7235b1	0.94613177
25	0xbf1fc1fd	-0.6240538
26	0xbd72aa8f	-0.05924469
27	0x3fa2198b	1.2664045
28	0xbee4e4a6	-0.44705695
29	0xbeb5507d	-0.3541297
30	0xbee8342d	-0.45352307
31	0x3e7578cd	0.23971863
32	0xb72fed53	-1.0486069e-05
33	0xb95985d8	-0.00020744593
34	0xb2e9b691	-2.7207792e-08
35	0xb6d4fb31	-6.347335e-06
36	0x37eb4f26	2.805104e-05
37	0xb7cbc123	-2.4289422e-05
38	0xb7eeb476	-2.8455845e-05
39	0x3941d174	0.00018483942
40	0xb7bf4097	-2.2799051e-05
41	0xb9004ad1	-0.00012234903
42	0xb806a03d	-3.2097323e-05
43	0xb844b9fb	-4.690325e-05
44	0x371cdd2a	9.349818e-06
45	0xb8044162	-3.1532145e-05
46	0x369ceb4d	4.676555e-06
47	0xb893bf6e	-7.045163e-05

bias f4 [48]
0	0xbf5578c8	-0.8338742
1	0x3fa1f8e3	1.2654079
2	0xbf8de442	-1.1085284
3	0x3f01b58f	0.5066766
4	0x3f9f9706	1.2467964
5	0x3f9dcf3d	1.2328869
6	0x3f72ff86	0.9492115
7	0x3e198a2a	0.14994112
8	0x3bc7e32a	0.006100078
9	0x3e032a9d	0.12809224
10	0x3ee53dee	0.4477381
11	0xbf921355	-1.141215
12	0xbebb2480	-0.36551285
13	0xbf755777	-0.95836586
14	0x3f36b9a2	0.71377003
15	0x3ee63bbe	0.44967455
16	0xbd9f43df	-0.07776617
17	0xbf4b0d8f	-0.79317564
18	0x3ec8be5f	0.39207742
19	0x3cd535ef	0.026026694
20	0xbf5382c1	-0.8262139
21	0x3e830b7a	0.25594693
22	0x3f53e3b4	0.8276932
23	0xbda31547	-0.07963043
24	0xbf4bc265	-0.795935
25	0x3f5153ee	0.8176869
26	0x3ee43415	0.44570985
27	0xbf0b3ebb	-0.54392594
28	0x3e8c24c4	0.273718
29	0x3d92e7fc	0.07173154
30	0x3f460ec5	0.77366287
31	0x3bbab634	0.00569799
32	0x3f13b7e7	0.5770249
33	0x3ef3b9ba	0.47602636
34	0xbf274291	-0.6533595
35	0x3e04ac8b	0.12956445
36	0xbf379945	-0.71718246
37	0x3ee0d2bc	0.43910778
38	0x3da4ed50	0.08053076
39	0xbf0418b6	-0.51600206
40	0x3f852169	1.0400821
41	0x3f35d841	0.710331
42	0x3f17fc7d	0.5936964
43	0x3e18fefb	0.14941017
44	0x3e4fea6a	0.20304266
45	0xbee1327a	-0.43983823
46	0xbe0250bb	-0.12726109
47	0x3f88d459	1.0689803

weight f4 [48, 6]
0	0xbe67ace1	-0.22624542
1	0x3f8d9c0b	1.1063246
2	0x3e5c4b2e	0.21513054
3	0x3cb709a9	0.022343474
4	0xbf872278	-1.0557394
5	0x3f4dad54	0.803426
6	0xbea1ec54	-0.31625617
7	0xbf0c866a	-0.548926
8	0xbda62989	-0.08113391
9	0x3c9876fd	0.018611426
10	0xbdc6f8ed	-0.097154476
11	0xbf7df314	-0.9919903
12	0xbd8db3c2	-0.06919052
13	0x3f7dd179	0.99147755
14	0xbc7dcc08	-0.015490539
15	0xbf18c1c7	-0.5967068
16	0x3f07f4b2	0.5310775
17	0x3fc0247c	1.5011134
18	0x3be19085	0.006883683
19	0xbf077fd6	-0.5292944
20	0x3e83b9df	0.25727746
21	0xbe64fb92	-0.22361591
22	0xc02f2f3c	-2.737258
23	0x3f65efd6	0.89819086
24	0x3cdbc7a3	0.026828593
25	0xbcc2fdcc	-0.02380266
26	0x3dca9a71	0.098927386
27	0xbd1d1dae	-0.038358383
28	0x3d07616f	0.033051904
29	0xbfacfbe2	-1.3514369
30	0x3e358a40	0.1772852
31	0xbccd6e63	-0.02507705
32	0xbdf1f514	-0.11814323
33	0xbc8b65ee	-0.017016377
34	0xbe5cb78b	-0.21554391
35	0xbfb12f84	-1.3842626
36	0x3eaba0ef	0.3352122
37	0xbea0cc86	-0.3140604
38	0x3dfeff35	0.12451021
39	0xbe27b9f2	-0.16379526
40	0x3e285809	0.16439833
41	0xbfd90735	-1.6955324
42	0xbd72321f	-0.05912983
43	0xbcb7e2b2	-0.022446964
44	0xbf4ec1bb	-0.8076436
45	0xbe8aad66	-0.27085418
46	0xbeeeca51	-0.4663873
47	0x3f632a28	0.887362
48	0xbe1b66ee	-0.15175983
49	0x4003c42c	2.0588484
50	0x3e63c43c	0.22242826
51	0x3dfd7f06	0.123777434
52	0x3e53fb6c	0.20701379
53	0xc00ba749	-2.1820853
54	0xbe5403f9	-0.2070464
55	0x3f3d51dc	0.7395303
56	0xbe381f8a	-0.17980781
57	0x3e4a85de	0.19777629
58	0x3e08bc36	0.13353047
59	0xc063b428	-3.5578709
60	0x3d06fbaa	0.03295485
61	0xbf3bd6ad	-0.73374444
62	0xbd2cba55	-0.042169888
63	0x3dc1a86a	0.094559506
64	0x3ed5e8db	0.41779217
65	0x402baf8f	2.6825902
66	0x3e222a35	0.15836413
67	0x3e7e1288	0.24811757
68	0xbc989b31	-0.018628689
69	0x3f08e9f7	0.53482
70	0x3d701428	0.058612972
71	0x4001faee	2.0309405
72	0x3eafa619	0.3430641
73	0xbfbbe304	-1.4678655
74	0x3e87cad0	0.2652192
75	0x3db7ec79	0.089806505
76	0x3e576ff5	0.21038802
77	0x3ffe855d	1.9884449
78	0xbc1fc1c5	-0.009750788
79	0x3fb57493	1.4176201
80	0xbd02b3d7	-0.03190979
81	0x3eae351d	0.34024897
82	0x3f21f7cf	0.6326875
83	0x3ed3085c	0.41217315
84	0xbe8c390c	-0.27387273
85	0xbf1f6a58	-0.6227164
86	0x3ea871be	0.32899278
87	0xbec773a6	-0.3895542
88	0x3eef12d8	0.46694064
89	0xbc5eae46	-0.013591355
90	0x3e9643e3	0.29348668
91	0x3d9ed2bb	0.077550374
92	0x3cd9c5fb	0.026583662
93	0x3f006084	0.5014727
94	0x3f0d3aec	0.5516803
95	0xc02832cd	-2.6281006
96	0x3e3bfbc8	0.18357766
97	0xbee99b22	-0.4562617
98	0x3d0ffe38	0.03515455
99	0xbe314943	-0.17313103
100	0xbcec1aaf	-0.028821317
101	0x3fc5be90	1.544878
102	0x3dcdf03a	0.10055585
103	0x3ffb5af6	1.9637134
104	0x3ea23acb	0.3168548
105	0x3d1e33cd	0.03862362
106	0x3e2f8caf	0.1714351
107	0x3ed31b76	0.4123189
108	0x3ee403c0	0.4453411
109	0xbeef1ee8	-0.46703267
110	0xbe43ef8c	-0.19134349
111	0x3e77afaf	0.24188112
112	0xbe1b50ca	-0.15167537
113	0xbf5b2d13	-0.8561565
114	0xbc540dce	-0.012942744
115	0xbf3b2a66	-0.7311157
116	0x3ea5af37	0.3236024
117	0x3f2f7505	0.6853793
118	0x3e461c4b	0.1934673
119	0xbefd8577	-0.49515888
120	0x3df4e1ec	0.11957154
121	0x3f382871	0.7193671
122	0xbe5fd486	-0.21858415
123	0x3edaff18	0.42772746
124	0x3eb4848c	0.35257375
125	0x402ebdf9	2.730345
126	0x3dea65bf	0.11445188
127	0xbe0b8366	-0.13624343
128	0x3ee01406	0.43765277
129	0x3e32ad6a	0.17448965
130	0x3fa045f4	1.2521348
131	0xbfd84e48	-1.689889
132	0x3c6c7584	0.014432315
133	0x3d619762	0.05507601
134	0x3de16eab	0.11007436
135	0x3e2fcbf3	0.17167644
136	0x3dd44f1c	0.103666514
137	0xbff12e11	-1.8842183
138	0x3e00037b	0.12501328
139	0x3f4021a8	0.75051355
140	0x3e730739	0.23733224
141	0xc002fde0	-2.0467453
142	0xbe813e03	-0.25242624
143	0x3eb5a534	0.35477602
144	0x3de893c3	0.11356308
145	0x3e7b27cb	0.24526899
146	0x3ef11aa8	0.4709065
147	0x3d33ccd9	0.04389653
148	0xbd977844	-0.07395986
149	0x400f3824	2.2378016
150	0x3e08da4e	0.13364527
151	0x3cff3d1e	0.031157073
152	0x3eb9fad4	0.3632418
153	0xbe5f990e	-0.2183573
154	0xbe50a9cc	-0.20377272
155	0xbfe99b98	-1.8250608
156	0xbe0ee0fc	-0.13953012
157	0x3f3de7a0	0.74181557
158	0xbe9e5f46	-0.30932063
159	0x3df2b130	0.11850202
160	0xc05eaab9	-3.47917
161	0xbe504893	-0.20340185
162	0x3bba16b5	0.0056789764
163	0x3e3e54dc	0.18587059
164	0x3e0cf983	0.13767056
165	0x3e0ac005	0.13549812
166	0x3e2fcec8	0.17168725
167	0x406b3122	3.6748738
168	0xbc6b7c47	-0.014372892
169	0xbe28f4df	-0.16499661
170	0xbf8b0a5b	-1.0862535
171	0x3d5993a9	0.053119335
172	0x3df38c01	0.11891938
173	0xbf17cd01	-0.59297186
174	0x3e9abf73	0.3022419
175	0x3eabf335	0.3358399
176	0x3eca34db	0.3949345
177	0x3ded7afb	0.11595722
178	0xbf2226b1	-0.6334029
179	0xbf9f7c9e	-1.2459905
180	0xbf081c1f	-0.5316791
181	0xbf5fc224	-0.8740561
182	0xbe7ae616	-0.24501833
183	0x3ca8c8a1	0.02060348
184	0xbf3e6f88	-0.74388933
185	0x3c793ae0	0.015211791
186	0xbd2cd635	-0.04219647
187	0x3edbcb9c	0.4292878
188	0x3d959c12	0.07305159
189	0xbf45669e	-0.77109706
190	0xbd779a94	-0.06045015
191	0x3eeb0b4b	0.45907053
192	0x3e2369b2	0.15958288
193	0xbfe1e6b2	-1.7648528
194	0xbda71133	-0.08157577
195	0x3f38ecea	0.722365
196	0x3ddeb65e	0.108746275
197	0x3f759a29	0.95938355
198	0xbdf0ac41	-0.11751605
199	0xc03ec1e8	-2.980585
200	0xbea00472	-0.31253392
201	0xbdaff109	-0.08590896
202	0xbe0320d2	-0.12805489
203	0x3eba40d2	0.3637758
204	0x3eed86b1	0.46391824
205	0x3f6abf7c	0.9169843
206	0x3e7c25bf	0.24623774
207	0xbe721afb	-0.23643105
208	0x3ee9117b	0.4552115
209	0xbf868876	-1.0510395
210	0xbe70b53a	-0.23506632
211	0x3e2c6642	0.16835883
212	0xbd1093e1	-0.03529728
213	0xbd7a5650	-0.06111747
214	0xbdc63569	-0.09678156
215	0x3ff0a073	1.8798965
216	0x3d66c013	0.05633552
217	0x3f76b4a7	0.96369404
218	0x3b84c488	0.0040517487
219	0x3ef3f4ce	0.4764771
220	0xbf82b14d	-1.0210358
221	0x3ceada7a	0.02866863
222	0xbd465dde	-0.048429362
223	0xbff22e75	-1.8920428
224	0x3e428a34	0.18998033
225	0x3eaee069	0.34155586
226	0x3e81bc4f	0.2533898
227	0x3e87a598	0.26493526
228	0x3e84d7b4	0.25945818
229	0xbf864393	-1.0489372
230	0x3ee79c44	0.4523641
231	0x3f513c74	0.8173287
232	0x3cc8548b	0.024454376
233	0xbf9c8d21	-1.2230569
234	0x3e8c5b44	0.2741338
235	0x3fba3bf4	1.4549546
236	0x3e690dd8	0.22759187
237	0x3def8897	0.11695974
238	0x3f0049f4	0.50112844
239	0x3fe83fbb	1.8144449
240	0x3eb8fd21	0.36130622
241	0xbfd15335	-1.6353518
242	0x3d80f159	0.062960334
243	0xbd01386d	-0.031547952
244	0x3dcc322d	0.09970508
245	0x3e06701e	0.13128707
246	0x3e44b8c8	0.19211113
247	0xc00610c2	-2.0947728
248	0xbce7a2cf	-0.028275875
249	0xbf096b74	-0.53679585
250	0x3c51d40f	0.012806906
251	0x3d31a6fe	0.043372147
252	0x3dec4749	0.11537034
253	0xbfd2d0dc	-1.6469989
254	0x3e0b246b	0.13588111
255	0xbdfd0604	-0.12354663

att_src f4 [1, 3, 16]
0	0xbcdf69b3	-0.027272081
1	0x3f77c078	0.9677806
2	0x3e6ba8d0	0.23013616
3	0xbff80ed7	-1.9379529
4	0x3f20fcd4	0.62885785
5	0x3e879f21	0.26488593
6	0xbfa7db87	-1.311387
7	0xbcad8bf1	-0.021184893
8	0x3e7ece88	0.24883473
9	0xbdb17c62	-0.08666302
10	0xbd9888b8	-0.07447952
11	0xbf0280d1	-0.5097781
12	0x3f1b03ce	0.6055268
13	0xbe81a8bd	-0.2532405
14	0x3e1d03b3	0.15333442
15	0xbf43dd94	-0.76509976
16	0xbea740c9	-0.32666615
17	0x3f981eff	1.1884459
18	0x3dc51975	0.09623996
19	0xbf1c6ef5	-0.61106807
20	0x3d8ae977	0.06782811
21	0x3faad9fe	1.3347776
22	0xbf39d8a0	-0.7259617
23	0xbdd74f05	-0.10513119
24	0xbf0607dc	-0.5235574
25	0x3fe704e7	1.8048371
26	0x3ee70fe2	0.45129305
27	0x3f681858	0.90662146
28	0xbd163b1b	-0.03667746
29	0xbf0df7e3	-0.5545637
30	0x3f9dfa9d	1.2342106
31	0x3f7ccaaf	0.9874677
32	0x3e9df94c	0.3085426
33	0x3e844d84	0.2584039
34	0xbf1f6254	-0.6225941
35	0xbccba4f2	-0.024858925
36	0xbebec1ee	-0.37257332
37	0xbd1303df	-0.035892364
38	0xbfda8e37	-1.707465
39	0x3e1183ff	0.14210509
40	0x3ee7bcb9	0.4526117
41	0x3eba55c3	0.36393556
42	0x3fb6316c	1.4233832
43	0xbb39dcc7	-0.0028360353
44	0x3e88b3d5	0.266997
45	0x3fcea0d1	1.6142827
46	0x3f1cadc6	0.6120266
47	0x3f174c30	0.5910063

att_dst f4 [1, 3, 16]
0	0x3e802778	0.25030112
1	0xbc2a84af	-0.010407611
2	0x3e0227c1	0.12710477
3	0xbe0dcbc9	-0.13847269
4	0x3d1a3d6e	0.03765624
5	0xbda71385	-0.0815802
6	0xbde6fa23	-0.112781785
7	0xbddeff04	-0.10888484
8	0xbe283475	-0.16426261
9	0x3e13bf59	0.14428462
10	0xbb7e70c7	-0.0038824545
11	0xbe6e2686	-0.23256883
12	0xbdc36af6	-0.095418856
13	0x3e444506	0.19166955
14	0xbd0da423	-0.03458036
15	0x3e813390	0.25234652
16	0x3e8f42e1	0.27980712
17	0xbfa4fa58	-1.2888899
18	0xbebd612b	-0.36988196
19	0x3f0cf69f	0.55063814
20	0xbe26bb52	-0.16282395
21	0xbf9688bc	-1.1760478
22	0x3eeb14b0	0.4591422
23	0xbf57da06	-0.8431705
24	0x3eb5608f	0.3542523
25	0xc001ee5e	-2.0301738
26	0xbf203e51	-0.6259509
27	0xbf1ba6a9	-0.6080118
28	0xbe100648	-0.14064896
29	0x3ecf5390	0.4049344
30	0xbfb616aa	-1.4225667
31	0xbface9b3	-1.3508819
32	0xbe8cc043	-0.27490434
33	0x3e6921ce	0.22766802
34	0x3c9b42a0	0.018952668
35	0xbefd25e5	-0.49442974
36	0x3f868866	1.0510375
37	0xbda35f79	-0.07977194
38	0x3f7ddbb2	0.99163353
39	0xbee81edc	-0.45336044
40	0xbee5fd5e	-0.44919866
41	0xbeb11034	-0.34582675
42	0xbf69f27c	-0.91385627
43	0xbe9b41d3	-0.30323657
44	0xbe43d280	-0.19123268
45	0xc001c7da	-2.027823
46	0xbed4d9b8	-0.41572356
47	0xbfd6658e	-1.6749742

bias f4 [48]
0	0xbe13f990	-0.1445067
1	0xbf16391d	-0.586809
2	0x3dc326da	0.09528895
3	0x3e80cf67	0.25158235
4	0xbe952164	-0.29127038
5	0xbc542887	-0.012949116
6	0xbd8b0765	-0.0678852
7	0x3ca7a626	0.020464968
8	0x3d30ed9d	0.043195356
9	0x3e267568	0.16255724
10	0xbe93b5b0	-0.28849554
11	0xbd13caa3	-0.03608192
12	0xbebe2f06	-0.3714525
13	0x3eb3f731	0.3514953
14	0x3edea141	0.43482402
15	0x3ecb7c96	0.3974349
16	0xbe1ad2d4	-0.15119487
17	0xbd7b9711	-0.061423365
18	0x3e9a23d2	0.30105454
19	0xbc376100	-0.01119256
20	0xbf0757b3	-0.52868193
21	0xbe34262b	-0.17592685
22	0x3dda932f	0.10672604
23	0x3e803627	0.25041315
24	0xbd546188	-0.051850826
25	0x3e1a17bc	0.15048116
26	0x3da689d3	0.08131757
27	0xbddd5c4d	-0.108086206
28	0x3e09d254	0.1345914
29	0xbd8ef923	-0.06981113
30	0xbea616df	-0.32439324
31	0xbda369f1	-0.07979191
32	0x3c8a776f	0.016902654
33	0xbec99340	-0.39370155
34	0x3e02e0c6	0.12781057
35	0xbe7fe956	-0.24991354
36	0xbea1957b	-0.31559357
37	0xbe3f9794	-0.18710166
38	0x3e307b64	0.1723457
39	0x3e0b23bf	0.13587855
40	0xbeaf6edf	-0.34264275
41	0xbd80e5fa	-0.062938645
42	0xbf28ac56	-0.65887964
43	0xbe2ceffc	-0.16888422
44	0xbe58a170	-0.21155334
45	0xbe0fd464	-0.14045864
46	0xbe6ba66e	-0.23012707
47	0xbe2c4106	-0.1682168

weight f4 [48, 48]
0	0x3f35ebde	0.7106303
1	0xbe06727d	-0.13129611
2	0xbc8f7a7b	-0.017514458
3	0x400c1c14	2.1892138
4	0xbdc5a8ef	-0.09651362
5	0x3e2fced7	0.17168747
6	0x3dadc5ed	0.08485017
7	0xbd177d30	-0.036984622
8	0xbe8a5e75	-0.2702519
9	0xbe7078aa	-0.2348353
10	0xbe6352f1	-0.22199608
11	0x3d14b080	0.036301136
12	0x3f6b432a	0.9189936
13	0xbe8e92d8	-0.27846408
14	0xbee763c2	-0.45193297
15	0xbe317f35	-0.17333682
16	0x3ce8a3d4	0.028398432
17	0xbd46966c	-0.048483297
18	0x3ef2135d	0.47280398
19	0x3d4e794a	0.05040864
20	0xbe84106b	-0.25793776
21	0xbf15b457	-0.584783
22	0x3e89e349	0.26931217
23	0xbf1a923f	-0.60379404
24	0xbe4cc250	-0.19996
25	0x3eb52325	0.35378376
26	0x4005a3dd	2.0881264
27	0xbe625448	-0.22102463
28	0xbe29dc15	-0.16587861
29	0x3f2c4170	0.6728735
30	0x3e80c000	0.25146484
31	0xbe1df562	-0.15425637
32	0xbed15dff	-0.40892026
33	0x3d60e943	0.054909956
34	0x3dd3fbb3	0.10350742
35	0xbe049567	-0.12947617
36	0x3f729ebb	0.94773453
37	0xbe18e766	-0.14932021
38	0x3cbf1e93	0.023330009
39	0xbebd2b05	-0.36946884
40	0xbda4af7f	-0.08041286
41	0x3e4c30bd	0.19940467
42	0xbdb748a3	-0.08949401
43	0x3e640565	0.22267683
44	0xbbceff75	-0.006317074
45	0xbec3979f	-0.38201615
46	0x3ea1bd3e	0.31589693
47	0x3e82b46f	0.25528285
48	0x3dd232fd	0.102636315
49	0xbd554c65	-0.05207481
50	0x3d904fb8	0.07046455
51	0x3db25f8a	0.08709629
52	0xbe0a2b1f	-0.13493012
53	0xbe0dc9c4	-0.13846499
54	0x3ce2ff31	0.027709575
55	0xbe8f5334	-0.27993166
56	0xbe52ed83	-0.20598416
57	0xbbe6a3c9	-0.0070385677
58	0xbf8685ae	-1.0509546
59	0xbec954b1	-0.39322427
60	0xbe2d605d	-0.16931291
61	0xbdd63386	-0.10459046
62	0xbe53fae1	-0.20701171
63	0x3e7e460e	0.24831411
64	0xbdbe02fc	-0.09277913
65	0x3e44de41	0.19225408
66	0xbe67ffe2	-0.22656205
67	0xbe24527a	-0.16047087
68	0x3e8b5c26	0.2721874
69	0xbed12619	-0.4084938
70	0xbed5b7a7	-0.41741678
71	0xbb9bcddc	-0.004754765
72	0x3e7eb88e	0.2487509
73	0xbebf505c	-0.37365997
74	0x3d3adbb7	0.045619693
75	0x3ec81e6f	0.3908572
76	0xbe1dd073	-0.15411548
77	0xbddb5582	-0.10709669
78	0xbeb4583a	-0.35223562
79	0xbcad7c04	-0.0211773
80	0xbeb3ecd2	-0.35141617
81	0xbc388e36	-0.0112643745
82	0xbe2a86b8	-0.16652954
83	0xbe9e23b9	-0.3088663
84	0xbadba725	-0.0016758187
85	0x3db05944	0.08610776
86	0x3e481711	0.19540049
87	0xbf1fa529	-0.6236139
88	0xbe203f06	-0.15649042
89	0x3e5b5478	0.21418941
90	0x3da0d6a8	0.078534424
91	0x3e31a76b	0.17349021
92	0xbd0343c0	-0.032047033
93	0x3e3b459d	0.18288274
94	0xbe257c99	-0.16160811
95	0x3df64108	0.120241225
96	0xbde7feee	-0.11327921
97	0x3e0db958	0.13840234
98	0xbe3a1308	-0.18171322
99	0x3e08349b	0.13301317
100	0x3d32a42a	0.04361359
101	0x3dccd7f4	0.10002127
102	0xbd8db579	-0.06919379
103	0xbd46c3b2	-0.048526473
104	0xbe6e3f2b	-0.23266284
105	0xbe945ca6	-0.28976935
106	0x3eb6cfa1	0.35705283
107	0xbd5a682e	-0.05332201
108	0xbd7f5b8f	-0.062343176
109	0xbe8a4017	-0.27002022
110	0xbdf84c04	-0.12123874
111	0xbe020828	-0.12698424
112	0xbd5dd1be	-0.054155104
113	0x3e45c208	0.19312298
114	0xbc8e400b	-0.017364522
115	0xbe11ef8c	-0.14251536
116	0x3eec962a	0.46208316
117	0xbe11ec25	-0.14250238
118	0x3e69a342	0.22816184
119	0xbee9aca7	-0.45639536
120	0xbe926bbf	-0.2859783
121	0x3da65462	0.081215635
122	0xbc66d5e6	-0.014089083
123	0x3e824896	0.25446004
124	0x3d86ffd6	0.065917656
125	0xbdb79634	-0.08964196
126	0xbd30bd13	-0.043149065
127	0xbd515b1f	-0.05111229
128	0xbe592404	-0.21205145
129	0xbe4605e1	-0.1933818
130	0xbdab78b9	-0.083726354
131	0x3de2831b	0.11060163
132	0x3d4d08e2	0.0500573
133	0xbd2920c6	-0.04129102
134	0x3d9f247e	0.07770632
135	0x3d9e583f	0.07731675
136	0xbe368acc	-0.17826384
137	0xbe0d7553	-0.13814287
138	0xbde1ea86	-0.1103106
139	0xbe8d696c	-0.27619493
140	0x3decf4ce	0.1157013
141	0xbdcb25a1	-0.099192865
142	0xbc99ba76	-0.01876567
143	0xbdf9f761	-0.12205387
144	0x3e494b28	0.19657576
145	0xbeba1838	-0.36346602
146	0x3db77f4c	0.08959827
147	0x3c692fe1	0.014232607
148	0xbe5988fe	-0.21243665
149	0xbe7df20d	-0.24799366
150	0xbe461782	-0.19344905
151	0x3ed347e8	0.41265798
152	0x3ef7f776	0.48430985
153	0x3eba6123	0.36402234
154	0x3e6f96cb	0.23397367
155	0x3ee49a7a	0.44649106
156	0x3e8e6066	0.2780792
157	0x3e7cb852	0.24679688
158	0x3d3ee8cd	0.046608735
159	0xbebaf039	-0.365114
160	0xbc2e56ba	-0.010640794
161	0xbf3f32bc	-0.7468679
162	0x3f110315	0.5664533
163	0x3ebf5d1b	0.3737572
164	0xbf686106	-0.90773046
165	0x3f5b7f4a	0.857411
166	0x3f5af750	0.8553362
167	0x3e8585cc	0.2607864
168	0xbf3b56d4	-0.73179364
169	0x3f57e404	0.843323
170	0x3e13c4dd	0.14430566
171	0xbf990ee8	-1.1957674
172	0x3e88a9d9	0.26692083
173	0x3ef074bf	0.4696407
174	0x3f1d4661	0.61435515
175	0xbdbcea79	-0.092244096
176	0xbcdaf113	-0.026726281
177	0x3d584c92	0.0528074
178	0x3f12fbe0	0.5741558
179	0xbeefa42d	-0.46804944
180	0x3e753d63	0.23949198
181	0xbea06457	-0.31326553
182	0xbdac6b61	-0.084189184
183	0xbeb0e81c	-0.34552085
184	0xbd9a668e	-0.07539092
185	0xbe3afcaa	-0.18260446
186	0xbe750a1a	-0.23929635
187	0x3d2e3adf	0.042536613
188	0xbb7c0ca4	-0.0038459683
189	0x3d1773c6	0.036975645
190	0x3ed9e512	0.4255758
191	0xbe6369ce	-0.2220833
192	0xbe43179f	-0.1905198
193	0x3e4ea9b5	0.20181926
194	0xbeb205c1	-0.34770015
195	0xbe67d878	-0.2264117
196	0x3d07d952	0.033166237
197	0x3d9599dd	0.07304738
198	0x3c480e50	0.012210444
199	0xbe909e6f	-0.28245875
200	0xbe86be3d	-0.26317015
201	0xbeb0fdae	-0.34568542
202	0xbe2d2ef6	-0.16912445
203	0xbe08eaee	-0.13370869
204	0xbdc1e62c	-0.0946773
205	0xbe258d2c	-0.16167134
206	0xbe156d80	-0.14592552
207	0x3d607436	0.054798327
208	0xbe282c26	-0.16423091
209	0x3e15e814	0.14639312
210	0xbe6e99d9	-0.23300876
211	0xbe04fd49	-0.12987246
212	0x3e45d146	0.19318113
213	0xbdfd4d93	-0.12368312
214	0xbd16101b	-0.036636453
215	0xbdf6127c	-0.12015244
216	0xbe3498e3	-0.17636447
217	0xbe4d48ec	-0.20047349
218	0xbed4a8b5	-0.41534963
219	0x3e3f6c7a	0.18693724
220	0xbd692081	-0.056915764
221	0xbe125ddf	-0.14293621
222	0xbe3f6ad7	-0.186931
223	0xbdc432af	-0.0957998
224	0x3e562472	0.2091234
225	0x3ddfe167	0.10931664
226	0xbe83d943	-0.25751695
227	0x3eaaa3f8	0.33328223
228	0xbea652b7	-0.3248498
229	0x3eb5be7a	0.35496885
230	0x3caa7d3f	0.020811675
231	0x3de2cc83	0.11074164
232	0x3e4a13fd	0.19734187
233	0x3e6e32d6	0.2326158
234	0x3e8f153e	0.27945894
235	0x3e4204aa	0.18947092
236	0x3d7ec11a	0.062195875
237	0x3d455f3d	0.04818653
238	0xbe3f1cb0	-0.18663287
239	0x3e4d4d69	0.20049061
240	0xbe60c81f	-0.2195134
241	0x3cd04c29	0.025426941
242	0x3cca2d58	0.024679825
243	0xbcb8d2a7	-0.022561384
244	0xbc6baa16	-0.014383813
245	0xbc084f96	-0.008319756
246	0x3e0c670b	0.13711183
247	0xbdc83d09	-0.097772665
248	0xbd5e8622	-0.054327138
249	0x3c81ca69	0.015843587
250	0xbe04cc8b	-0.12968652
251	0xbe3d2eb0	-0.18474841
252	0x3ed09606	0.4073946
253	0xbeec94d4	-0.46207297
254	0x3e3daddc	0.18523353
255	0xbdeeeef9	-0.11666674

att_src f4 [1, 1, 2]
0	0x4018cb03	2.3873909
1	0x3fa1a672	1.262892

att_dst f4 [1, 1, 2]
0	0x3eebdbae	0.4606604
1	0xbe9fc7d2	-0.31207138

bias f4 [2]
0	0xbd4facaa	-0.050701775
1	0xbf0375ec	-0.5135181

weight f4 [2, 48]
0	0x3f7dc42d	0.99127465
1	0x3e863a0e	0.26216167
2	0x3ee11ee4	0.4396888
3	0xbeb018cf	-0.34393927
4	0x3f1be2ef	0.6089315
5	0xbf1bd57f	-0.60872644
6	0xbf4c3a02	-0.7977601
7	0xbfd3b97c	-1.654098
8	0xbf73be61	-0.9521237
9	0x3f070c48	0.52753115
10	0xbf7fd0b0	-0.99927807
11	0x3e428373	0.18995456
12	0xbe7c2046	-0.24621686
13	0x3df4d29c	0.11954233
14	0xc0066710	-2.1000404
15	0x3d6e4cf9	0.058178876
16	0x3e3c2ae1	0.18375732
17	0xbfe13602	-1.7594607
18	0xbeb82605	-0.35966507
19	0xbcec749a	-0.028864194
20	0x3f84a6f9	1.0363456
21	0x3e3e1f87	0.18566714
22	0x3dcfb544	0.101419955
23	0xbf539d16	-0.8266157
24	0xbf0d6e0d	-0.5524605
25	0xbf49c5c5	-0.788174
26	0x3eaefcb8	0.34177184
27	0x3ee17017	0.4403083
28	0xbf7c0028	-0.9843774
29	0xbeecc915	-0.46247163
30	0x3f346138	0.70460844
31	0x3cb78264	0.022401042
32	0xbf66e7f4	-0.9019768
33	0x3ee74a77	0.45174
34	0xbec5ddb4	-0.3864571
35	0xbf5a6e55	-0.85324603
36	0xc01b0e08	-2.4227314
37	0xbcbcf081	-0.0230639
38	0x3ed2059f	0.41019914
39	0x3f143a57	0.5790152
40	0x3f425278	0.7590709
41	0x3e8388b0	0.25690222
42	0x3e09a47e	0.13441655
43	0x3bfbe223	0.0076868697
44	0xbef44424	-0.47708237
45	0xbfca41dd	-1.580135
46	0x3e3be379	0.18348493
47	0x3f1ebbc6	0.6200527
48	0xbfc50192	-1.5391104
49	0xbfc15a4e	-1.5105684
50	0x3e22ccc8	0.1589843
51	0xbf085118	-0.5324874
52	0x3ed5784f	0.4169335
53	0xbf678242	-0.9043313
54	0xbcbc9a04	-0.02302266
55	0x3f889931	1.067175
56	0x3f5af71b	0.85533303
57	0x3d8268b6	0.06367628
58	0xbfe159ed	-1.7605568
59	0xbf6b44a1	-0.91901594
60	0xbf4c119b	-0.79714364
61	0x3f843f2f	1.0331782
62	0x3fd45af3	1.6590255
63	0x3fc78a29	1.5589038
64	0x3f320a58	0.69547033
65	0x3ec8c61e	0.3921365
66	0xbfc76362	-1.5577204
67	0x3f58a8b2	0.8463241
68	0xbeb5e73a	-0.35527974
69	0xbebba4e1	-0.3664923
70	0x3f372127	0.7153496
71	0xbfa87505	-1.3160712
72	0x3f4265d4	0.7593663
73	0x3f419654	0.7562001
74	0xbf15c0c9	-0.5849729
75	0xbf40c95c	-0.7530725
76	0x3e7c6bef	0.24650548
77	0x3f368005	0.7128909
78	0xbf58198f	-0.84414
79	0xbe2f5766	-0.17123184
80	0xbdea957e	-0.114542946
81	0xbf137fc5	-0.57616836
82	0x3f9fd7a3	1.2487682
83	0xbf83344c	-1.0250335
84	0xbea4491d	-0.3208703
85	0xbf4572a1	-0.77128035
86	0xbf695dd9	-0.91158825
87	0x3f0ceabf	0.55045694
88	0xbf9b8d64	-1.2152524
89	0x3ef69c5f	0.48166177
90	0xbf327c45	-0.6972087
91	0xbf46fd4a	-0.7773024
92	0xbf3d608d	-0.7397545
93	0x3f895292	1.0728323
94	0xbf8cc2c5	-1.0996939
95	0x3fd605d7	1.6720532

weight f4 [2, 16]
0	0x3c251620	0.010076076
1	0xbe1f2ffc	-0.15545648
2	0x3dbbd63c	0.09171721
3	0xbbd0c940	-0.006371647
4	0x3e68a102	0.2271767
5	0xbe0c1692	-0.13680485
6	0x3d7633e8	0.060108095
7	0xbe17876e	-0.14797756
8	0xbd83b5dc	-0.06431171
9	0x3b883c40	0.004157573
10	0xbde30f18	-0.11086863
11	0xbe28f232	-0.1649864
12	0x3e668614	0.22512084
13	0x3e6e3b9e	0.2326493
14	0xbdf74664	-0.12073973
15	0xbe345092	-0.1760886
16	0x3d773320	0.06035149
17	0xbca86290	-0.02055481
18	0x3e0ebd42	0.13939384
19	0xbe16980a	-0.14706436
20	0xbe63e8a8	-0.2225672
21	0x3d31fc00	0.043453217
22	0x3e4a2bf8	0.19743335
23	0x3de6a0d4	0.11261144
24	0x3d4a5088	0.049393207
25	0x3e715642	0.23568061
26	0x3ca13220	0.019677222
27	0xbe2f81e2	-0.1713939
28	0x3dbd4ce0	0.09243178
29	0xbe0a4068	-0.13501132
30	0xbe2cf3e0	-0.16889906
31	0xbe1a9b30	-0.15098262

bias f4 [2]
0	0x3da31a00	0.079639435
1	0xbc8798f0	-0.016552418
