src/NN/final_model_1.pth (torch, 26450 bytes, 12 tensors)

in_proj_weight f4 [18, 6]
000000 e3 6f 20 41 16 78 36 41 d7 e2 33 c0 08 b1 61 40
       10.027316 11.404318 -2.8107202 3.5264301
000010 e4 51 b0 40 9c f1 3f bf 18 86 24 41 33 8f 34 41
       5.5099964 -0.7497804 10.282738 11.284961
000020 b2 51 15 bf eb 93 a8 40 a8 5e fb 40 37 25 35 3f
       -0.5832778 5.2680564 7.8553047 0.7075991
000030 16 c8 23 c0 df 1c c1 3f ce ff 15 3b 82 13 59 40
       -2.5590873 1.5086936 0.0022888067 3.3918157
000040 02 41 40 40 0b f2 8a bf e3 8a 95 bf a4 e2 53 bf
       3.0039678 -1.0855116 -1.168301 -0.827677
000050 dc d2 e8 bf 47 f4 90 be 7a b5 ef bf e1 ad 70 c0
       -1.8189349 -0.2831137 -1.8727257 -3.7606127
000060 c8 c1 4b 3d 31 ec b9 c0 8d 28 61 bf f9 8c 47 40
       0.04974535 -5.810082 -0.879525 3.1179793
000070 25 0c 78 3f 4a 53 7a 3f 8f 26 3b 40 5e 4b 91 c0
       0.9689353 0.9778334 2.9242284 -4.54045
000080 db 64 1b 3f e8 f6 39 40 77 9f c0 3f da f5 81 40
       0.6070077 2.905695 1.5048665 4.061261
000090 ac 76 ff bf 53 da 21 bf b4 da 4d 40 26 69 f6 3f
       -1.9958091 -0.6322376 3.2164736 1.9250839
0000a0 da 0e ad 40 f3 91 5f c0 03 ea 18 c0 80 5d 3e bf
       5.408063 -3.493283 -2.389283 -0.7436142
0000b0 29 c8 0b 40 5a 06 bf 3f 8c 09 b9 40 3e ad 68 c0
       2.1840918 1.4923813 5.7824154 -3.6355739
0000c0 9c 2a 69 bf a1 3f 7d 40 01 da 8b bf 47 5a d3 c0
       -0.9108064 3.9570086 -1.0925905 -6.60477
0000d0 56 72 89 c0 59 da 33 c1 d7 c4 df be 9d 4b 74 40
       -4.295207 -11.240808 -0.43704864 3.817115
0000e0 0e c1 c4 bf 80 64 c3 c0 3c fa 91 c0 34 52 2d c1
       -1.5371416 -6.106018 -4.561796 -10.832569
0000f0 0d 4d 46 c0 c6 bc a3 bf 4c f2 92 40 66 d8 95 40
       -3.0984528 -1.2791984 4.5920773 4.682666
000100 be 68 b1 c0 9e 56 f5 bf ba 72 1d c0 8e f2 a3 be
       -5.544036 -1.9167058 -2.4601274 -0.32020992
000110 67 6d 63 40 11 12 94 40 0b 95 ab c0 c8 34 25 c0
       3.5535524 4.6272054 -5.3619437 -2.5813465
000120 a5 c7 6b bd 7f 07 b0 3c c7 3b 7b bf 8d da 0e 3d
       -0.057563443 0.02148795 -0.9813809 0.034876395
000130 16 f3 44 bc 6e 7c df bf a1 9b 4a bf 3d 86 86 3f
       -0.012020847 -1.7459848 -0.7914372 1.0509716
000140 5b 7e 40 c0 2d c9 5c 40 cd 1b d1 3d 4f 6b ee c0
       -3.0077121 3.4497788 0.10210381 -7.450599
000150 03 c2 cf be 55 11 e3 bd 5d 48 04 3e f8 64 40 c0
       -0.40577707 -0.1108729 0.1291823 -3.0061626
000160 b0 e4 3a 3f 64 95 c1 c0 86 ec a4 bd e2 1a 18 40
       0.730052 -6.049486 -0.08052926 2.3766408
000170 a1 3b a3 3f 0d 14 82 bf 96 f3 f5 bf 55 d9 07 c1
       1.2752572 -1.0162369 -1.9214962 -8.49056
000180 61 37 cf 3f 6a fa aa 40 5f 67 7c bf d6 40 a3 bf
       1.6188775 5.343068 -0.9859523 -1.2754161
000190 22 12 f2 3e 4a e0 30 40 84 62 3e 3f 9a 43 a7 bf
       0.4727946 2.7636895 0.7436907 -1.3067505
0001a0 dd c9 8c c0 1d 1c 90 3f c0 93 de 3e 59 24 0e c1
       -4.3996415 1.125858 0.434721 -8.883874

in_proj_bias f4 [18]
000000 88 05 9e 40 63 f7 92 40 aa 30 8b 41 75 d9 76 41
       4.938175 4.5926986 17.398762 15.42809
000010 d9 f3 db c0 49 a4 e5 c0 35 a2 b6 3f f5 61 a0 3f
       -6.8735166 -7.1763043 1.4268252 1.2529894
000020 1d 93 a3 be 29 d1 d7 be 65 39 78 3f db db 24 3f
       -0.31948176 -0.42151764 0.9696258 0.6439797
000030 cc f6 00 3f 59 73 3c bf 43 82 10 40 9e 24 cd 3f
       0.5037658 -0.73613507 2.2579505 1.60268
000040 66 63 cb bf 9a 32 5d 3f
       -1.5889709 0.86405337

weight f4 [6, 6]
000000 f3 de 6a bd 18 8a b3 c0 c2 cc e1 3e d1 0b 17 40
       -0.057341527 -5.610607 0.4410153 2.3600962
000010 88 f3 9b 3f 93 fa 14 c0 8c f8 f9 ba 07 ab c0 3f
       1.2183695 -2.3277938 -0.0019071265 1.5052193
000020 51 0f 81 40 8d 2e ad 3f ea 11 9d 3e 59 3e 25 40
       4.0331197 1.3529831 0.3067773 2.5819304
000030 d9 3f 6b bd 14 68 7b bf 4a d8 78 bf 65 46 8d 3f
       -0.057433937 -0.98205686 -0.9720503 1.1037108
000040 c4 7e 4f c0 16 76 04 40 aa 4f 37 bc 5f 11 84 bf
       -3.2421122 2.0697074 -0.011188427 -1.0317801
000050 51 0b 40 c0 6f 51 40 c0 eb 9d 45 bd fc 8b cc 3f
       -3.0006907 -3.0049703 -0.048246305 1.598022
000060 4c b2 d4 bd 60 71 73 c0 92 72 e4 3f ac fd 86 c0
       -0.1038557 -3.8037949 1.7847464 -4.218466
000070 ee d5 01 bf c0 0d 99 c0 5c aa 29 be c8 c0 d2 40
       -0.50717056 -4.7829285 -0.16568893 6.586033
000080 1b 97 7b c0 20 03 af 3c d0 5b e9 3f 0b d9 66 be
       -3.9310977 0.021363795 1.8231144 -0.22543733

bias f4 [6]
000000 9a 13 56 3c 0b ef 95 3f 6d ce 3b 3e 3f 05 a3 3e
       0.013066197 1.1713575 0.18340464 0.3183994
000010 13 1c 88 bf c1 67 bf bf
       -1.0633568 -1.4953538

weight f4 [6]
000000 d1 7f 60 3f 6b 5b ef 3f f7 86 ac 3f 1b 27 ad 3f
       0.8769503 1.8699774 1.3478688 1.3527559
000010 41 cc 85 3f ad a5 c6 3f
       1.0452958 1.551931

bias f4 [6]
000000 6f 29 40 be 18 3d b0 bd d0 a1 8f bf ff b1 ad bf
       -0.18765806 -0.08605403 -1.1221256 -1.3569945
000010 e5 b2 a9 bf 0e 4d 25 c0
       -1.3257719 -2.582828

weight f4 [64, 6]
000000 6c dc 0d 40 31 5d 2e c0 8e 1f 07 40 eb 11 e1 bf
       2.2165785 -2.724438 2.111301 -1.7583593
000010 22 25 fd 3d 0e 3b 90 3f c9 3a 2f bf b9 11 75 40
       0.12360598 1.1268022 -0.68449074 3.8292067
000020 56 bc 80 3f d3 90 36 40 1f 88 91 3f c8 9e f6 be
       1.0057476 2.8525894 1.1369666 -0.48168015
000030 0e 5d 73 40 9c 6e 0c 3e a1 6c 75 40 7c a9 f9 be
       3.8025546 0.13714069 3.8347552 -0.4876212
000040 a8 76 c5 bf 6e d2 80 3f 0f 22 fe be 47 4c b3 3e
       -1.5426836 1.0064218 -0.4963536 0.35019132
000050 f8 38 9f bd 8e 95 0f bf df 38 d5 bc 21 94 fa 3e
       -0.07774538 -0.5608758 -0.026028095 0.48941138
000060 9b bd a2 bf a7 c9 52 c0 c3 2d 77 3f 2a 1b 54 3f
       -1.2714113 -3.293558 0.965542 0.8285395
000070 0d 65 40 3e 5b 4f 46 40 fe 59 78 3f a4 35 82 3f
       0.18788548 3.0985935 0.9701232 1.017262
000080 4e 4e 29 3f 46 e2 16 c0 45 ef 95 40 07 20 05 be
       0.6613511 -2.3575606 4.6854577 -0.13000499
000090 c2 d0 85 3f ed dd 37 40 76 5f 05 c0 59 d9 06 c0
       1.0454333 2.8729203 -2.0839515 -2.1070158
0000a0 44 0c 8f be 99 f5 be 3f c7 0c 37 40 e7 f4 89 bd
       -0.27939045 1.49187 2.8601549 -0.067361645
0000b0 d2 27 72 40 46 8c 79 bf 5f b5 e4 bf ff 2b 83 3f
       3.7836804 -0.97479665 -1.786785 1.0247802
0000c0 56 59 4e 40 7b 3e 7d bf 04 65 20 c0 84 0d 83 3f
       3.2242026 -0.9892346 -2.5061655 1.02385
0000d0 71 48 1f 3f 6a 2d f1 3f 31 aa 92 bf 90 18 52 c0
       0.6221991 1.8841984 -1.1458188 -3.2827492
0000e0 86 b5 09 3e d1 1a 24 bf 9f e1 1e 3d e0 9a 5d 40
       0.13448152 -0.6410342 0.038789388 3.4625778
0000f0 58 a8 46 40 d3 af 91 3e 28 76 80 3f 91 13 e4 3e
       3.104025 0.28454456 1.0036058 0.44546178
000100 be aa 53 40 3f fd d3 3e 59 f3 0d c0 4b 89 70 bf
       3.3072963 0.4140415 -2.2179778 -0.9395949
000110 83 63 66 3e d0 05 61 40 2f a6 fb 3f 71 53 e3 3f
       0.22498898 3.5159798 1.966009 1.7759839
000120 50 0a 01 40 2c e5 b9 bf 80 b8 12 c0 27 c4 b2 bf
       2.0162544 -1.4523063 -2.292511 -1.3966111
000130 58 76 5d 3f 3d 23 0d 40 a0 a2 22 40 e4 a7 2f c0
       0.86508703 2.2052758 2.5411758 -2.7446222
000140 6e 8a 0d 40 c8 0a ee bf 00 c1 38 3d c5 89 80 3f
       2.211574 -1.859704 0.045105934 1.0042044
000150 54 c3 74 40 af 72 51 bf a6 4c 5e bf 80 ab 41 40
       3.824422 -0.8181562 -0.86835706 3.0260925
000160 3c 58 8e bf 35 e5 a9 3f eb 48 87 bf b2 b3 40 bd
       -1.1120677 1.3273073 -1.0569128 -0.04704637
000170 e0 25 bd bf 06 e0 6d c0 c9 a9 cb 3f 5c 53 c7 3f
       -1.4777184 -3.7167983 1.5911189 1.5572314
000180 c6 c9 4f 40 7a b1 30 40 06 d3 1e 40 c4 d3 ab bd
       3.2466903 2.7608323 2.4816298 -0.083900005
000190 65 7b 88 bf e4 1e 0f 3f c1 99 46 c0 2e f2 9b 3e
       -1.0662657 0.5590651 -3.1031344 0.30458206
0001a0 22 00 60 40 7a d0 d5 3e f8 86 2f 3f 67 b8 b0 3e
       3.500008 0.41760617 0.6856532 0.34515688
0001b0 65 5b 6d 3f 11 9f 1c 40 de b4 0e c0 b5 be 14 c0
       0.9271758 2.4472086 -2.2297893 -2.3241398
0001c0 22 2e eb be da ff 04 40 ef 06 d8 be c3 87 9b 3d
       -0.45933634 2.078116 -0.4219279 0.07594254
0001d0 4c 6c d0 3d 19 bd 20 3f 48 dc cf be df 34 81 3f
       0.10176906 0.6278854 -0.4059775 1.009426
0001e0 4a 1e cb bf fc 3b 39 c0 25 04 ea 3d e8 a6 5a 40
       -1.5868618 -2.8942862 0.11426572 3.4164371
0001f0 fa df a6 bd 5b f2 28 40 e6 43 08 bf 44 b9 0e c0
       -0.08148189 2.6397922 -0.53228605 -2.2300577
000200 c0 1b 71 be 65 b9 5e c0 e2 f8 9a 3f 7b 25 c7 3f
       -0.23545742 -3.4800656 1.2107203 1.5558313
000210 41 9f 25 40 6c bc 0e bf 46 c9 e2 3f e8 40 36 c0
       2.587845 -0.5575626 1.7717674 -2.8477116
000220 37 72 f3 3f e2 6f 56 3f 6d cc 01 3f 25 c0 1e 40
       1.9019231 0.8376447 0.50702554 2.4804776
000230 b3 9c 02 c0 e8 60 f9 bf 69 f5 d2 3d d5 de e0 3f
       -2.0408142 -1.9482698 0.103007145 1.7568003
000240 8a 44 3c c0 c1 78 0d 40 8c 36 15 40 28 38 8b bf
       -2.9416833 2.2104952 2.3314543 -1.0876513
000250 3c b9 d3 3f a4 e8 2c 3e 1a 73 1c c0 0f 2b 11 40
       1.6540904 0.1688562 -2.4445252 2.268253
000260 b9 16 34 bf d0 ad 55 c0 7e bf 08 40 11 50 76 3f
       -0.7034717 -3.3387337 2.1366878 0.9621592
000270 ce 82 7d 40 d8 9f b9 3e a1 88 63 3f 5a dd b0 be
       3.9611087 0.36254764 0.88880354 -0.34543878
000280 13 fa 2b 40 17 a7 94 be fa 53 f1 bf 86 97 6b c0
       2.6871383 -0.2903373 -1.8853753 -3.6811233
000290 bb 14 25 3f f4 f8 1e 40 a3 96 79 3d 45 c1 19 40
       0.6448476 2.483945 0.060934674 2.4024212
0002a0 09 52 19 be e5 b5 95 bf 20 d9 9d bf ad 64 56 c0
       -0.149727 -1.1696135 -1.2331886 -3.3498948
0002b0 e0 37 7f 3f c9 61 06 40 3d 91 53 40 60 c8 a3 3e
       0.99694633 2.0997183 3.3057396 0.31988811
0002c0 51 e1 37 3f e7 59 9c be 36 7f 2d 40 c8 f5 ea 3e
       0.7182818 -0.3053734 2.7108893 0.4589064
0002d0 60 e3 b0 3f 1c e5 c4 bf 56 01 51 bf d3 2c 53 c0
       1.3819389 -1.5382419 -0.81642663 -3.2996109
0002e0 cb 30 87 3f ae 86 ff 3f 9e 24 cf 3f a3 3c ce bf
       1.0561765 1.9962976 1.618305 -1.6112255
0002f0 c5 57 fe bf 89 14 f5 bf 35 78 7f 3f 16 d6 0e 40
       -1.9870535 -1.9146892 0.99792796 2.2318168
000300 cd a8 77 bf 2a 6e 38 bf cc bf 9d 3f 4d b5 84 40
       -0.96741945 -0.72043097 1.2324157 4.1471314
000310 51 da 12 40 f1 fb f2 be 9c 91 55 40 fe ea c7 3e
       2.294575 -0.4745784 3.3370123 0.39046472
000320 d8 24 8c 40 a7 3f 75 bf f1 20 c2 bf 4a ff 94 3f
       4.3794975 -0.9580025 -1.5166303 1.1640408
000330 3a 48 e5 3f 29 6c 2c 40 78 23 ff 3f 66 a6 60 40
       1.7912667 2.6941016 1.9932699 3.5101562
000340 df 2f 9c bf 9d c7 a1 3f e6 08 f4 bf 81 99 fb bf
       -1.2202109 1.2639042 -1.9065216 -1.9656221
000350 20 92 42 40 60 57 dc 3e 08 9f 56 40 08 8d be be
       3.0401688 0.43035412 3.3534565 -0.37216973
000360 1e 1e 75 40 ef f2 33 3f 31 d8 78 40 19 7b 77 bf
       3.8299632 0.7029256 3.8881953 -0.9667221
000370 27 70 c1 bf 0a 7e 73 3f af 8c 3b c0 c7 2a 00 40
       -1.5112351 0.95114195 -2.9304616 2.002611
000380 56 54 4a 40 0c d2 64 3f 49 3d c2 3f dd 37 4a 3f
       3.1613975 0.89383006 1.5174953 0.7899149
000390 d0 f9 03 c0 41 cc 2a c0 0e 65 e8 3f 62 95 24 40
       -2.0621223 -2.6687167 1.815584 2.5716176
0003a0 0f 89 08 3f 57 54 05 40 88 1d 2f bf 00 00 3a bf
       0.53334135 2.0832727 -0.68404436 -0.7265625
0003b0 4d d8 b3 3f 56 5c 88 40 21 ae 24 40 1f 2e 2d bf
       1.4050385 4.2612715 2.573128 -0.676485
0003c0 6e 53 62 40 12 22 47 be 9f a9 f4 3f cc 12 fb be
       3.5363421 -0.1944659 1.9114264 -0.49037778
0003d0 ec 2b 38 40 d4 16 51 be d7 52 37 40 29 41 37 c0
       2.8776808 -0.20418864 2.8644311 -2.863352
0003e0 c0 ca 05 40 eb d0 c4 bf 30 b5 1f bd 62 31 b3 3f
       2.0904999 -1.5376257 -0.038991153 1.3999445
0003f0 00 d1 47 c0 02 1d a1 3f 64 d6 0e 40 6a a7 6f 3f
       -3.1221313 1.2586977 2.2318354 0.9361483

bias f4 [64]
000000 79 be 2d c0 ee 58 6b c0 96 62 74 bf 7a 7c 04 c0
       -2.7147505 -3.6773028 -0.9546293 -2.0700974
000010 d7 46 cf 3f f9 b1 90 3f 1e 43 6b c0 87 10 00 c0
       1.6193494 1.1304313 -3.6759715 -2.0010087
000020 0a a1 db bf fc 15 46 39 fd d1 a0 bf 31 ce cb 3f
       -1.715852 0.00018890941 -1.2564083 1.59223
000030 6f 6b 01 c0 bb 2d 41 c0 e0 06 2f c0 b9 34 c8 bf
       -2.0221822 -3.0184162 -2.7347946 -1.564109
000040 5a 9b 94 c0 89 23 22 c0 2f c8 47 c0 01 64 2e c0
       -4.643964 -2.533419 -3.1215932 -2.7248538
000050 f0 62 cb 3f 5f 8f d3 be 9b 1e f0 3e 45 c0 f9 bf
       1.5889568 -0.4132032 0.4689835 -1.9511801
000060 c8 c5 20 c0 d3 32 1b c0 b2 55 ad 3f ad ee ad 3f
       -2.5120716 -2.424977 1.3541777 1.3588463
000070 42 c9 fc bf cb a2 b3 bf a9 5c 02 c0 58 f3 ff bf
       -1.9748919 -1.4034055 -2.0369055 -1.9996138
000080 6a 06 2a c0 8a eb a8 bf 59 a5 73 bf d9 92 d9 bf
       -2.6566415 -1.3196881 -0.95174176 -1.6997939
000090 ac d0 89 bf 55 ae ed bf 44 c5 cf 3f 0c 0a 33 c0
       -1.0766807 -1.8568827 1.6232076 -2.7974882
0000a0 93 f5 d2 3f 29 f6 29 c0 a0 15 31 c0 e3 88 34 c0
       1.6481193 -2.6556494 -2.766945 -2.820855
0000b0 04 97 02 c0 11 85 83 bf 47 ce d2 bf d6 31 cc 3e
       -2.0404673 -1.0274984 -1.6469201 0.39881772
0000c0 8e e1 58 c0 98 78 cf 3f bb 71 66 c0 68 2f f5 3f
       -3.3887668 1.6208677 -3.6006916 1.9155092
0000d0 58 98 0c bf 43 c0 a8 be e1 7a eb 3f 2d ad f7 bf
       -0.5491996 -0.32959184 1.8396875 -1.9349724
0000e0 36 2d cf bf 2b a9 23 bf 99 98 5f c0 37 bc d3 3e
       -1.6185672 -0.63930005 -3.4936888 0.41354534
0000f0 11 c0 95 bf 45 ef 18 c0 66 49 d7 be 2d 73 48 c0
       -1.1699239 -2.3896039 -0.42048186 -3.1320298

weight f4 [64, 64]
000000 c5 a0 3a 3c 45 df c5 3d 76 53 4d be 63 17 f8 bc
       0.0113908695 0.09661726 -0.20051369 -0.03028459
000010 b1 12 bc 3d 8f e5 5a 3e b7 cc 14 3d 37 ba 0b be
       0.091832526 0.21376632 0.036328044 -0.13645254
000020 32 51 8e bd ba 1c 05 bd 24 8a 02 bd 84 67 bc bd
       -0.069490805 -0.0324981 -0.031870022 -0.091994315
000030 9b b8 fb bd d6 1f b7 3d ee 70 81 3d a7 4f 0b 3e
       -0.1229107 0.08941619 0.06320368 0.13604604
000040 72 aa ad bd ae 50 a1 3d 03 5f fa 3d ee ad 82 bc
       -0.084797755 0.078767166 0.12225153 -0.015952077
000050 a9 4a ed 3c f6 e3 d7 bd 21 f5 c3 bd ba ab 66 be
       0.028966265 -0.10541527 -0.09568239 -0.22526446
000060 6e fd cb 3d 0e 98 6c bd 46 e8 3f bc 45 7f 05 3e
       0.09960447 -0.0577622 -0.011713093 0.1303683
000070 b9 9e 9c 3c 13 5b 05 3e a2 ef 33 3d 35 72 46 bd
       0.019118654 0.13023023 0.043929704 -0.04844876
000080 e3 1d 05 3d 5b c0 c7 bd 7a fb b9 3d 00 d7 17 bb
       0.032499205 -0.09753486 0.090811685 -0.0023168921
000090 4e 2b fb 3d a6 88 42 be 9c ed 45 bd 14 80 c1 bd
       0.12264119 -0.1899744 -0.048322305 -0.09448257
0000a0 51 2a e4 3d cd 77 c4 3d 3f 9a 4c 3e 8d 4b 81 bc
       0.11140884 0.09593163 0.19980715 -0.015783096
0000b0 ca 7d c9 3d 57 22 98 bd c9 b8 69 bb 86 89 e9 3d
       0.098384455 -0.07428425 -0.003566312 0.11403184
0000c0 38 0b 92 bc 20 72 f4 3d a1 30 84 bc a7 ce 89 be
       -0.017827615 0.1193583 -0.01613647 -0.26915476
0000d0 f8 40 6a bd 88 a5 0b 3e c3 00 9f 3c a0 e2 19 bd
       -0.057190865 0.13637364 0.019409543 -0.037569642
0000e0 e9 15 60 3d cf 97 0b be 28 c2 91 3d 5d bb 1b be
       0.054708395 -0.13632129 0.071171105 -0.15208192
0000f0 03 6b 0e 3b 0b e5 12 3e a3 60 50 bd bc dc 80 bd
       0.0021731264 0.14345185 -0.05087341 -0.06292102
000100 74 3c 29 3e a2 70 c1 bd 11 5e dc 3c 62 39 63 3d
       0.16526967 -0.09445311 0.026900323 0.055474646
000110 5c 7f 84 3d e2 2f bc 3c 94 af 69 3d 01 c3 79 be
       0.064696044 0.022972051 0.05705221 -0.24390794
000120 74 81 34 3d 48 24 37 3e bd d4 24 be 04 34 c7 3d
       0.04406877 0.17884934 -0.16096778 0.09726718
000130 dd 71 0a bd 98 ab 00 3d b1 64 ba bc 96 e8 35 3d
       -0.033799995 0.031413645 -0.022753092 0.044411264
000140 9a 08 44 3e a6 53 3f bd 39 4c 02 3d 2e d3 4e bd
       0.19143906 -0.046710633 0.031810973 -0.050494365
000150 72 4c 43 bd d1 7a 81 3e 41 e3 d8 bd 24 9d fc 3d
       -0.047680326 0.25289014 -0.1059022 0.1233466
000160 77 d1 47 3d 2b dc 36 be ca b8 e4 bd f6 7a b5 be
       0.048783746 -0.17857425 -0.11168058 -0.35445374
000170 a4 15 b8 bc b1 3e 77 bd 23 84 79 3c e1 87 ea 3c
       -0.022471257 -0.06036252 0.015229258 0.028629245
000180 da 49 43 be 98 f8 4c 3e 23 fd 90 bc 90 0d 32 bd
       -0.19071141 0.20016706 -0.01769883 -0.043469965
000190 77 36 d2 3d a6 ff dd 3d 2c 1d fb bc 54 07 36 bc
       0.102642946 0.10839777 -0.030653559 -0.011110146
0001a0 a5 cb 5a 3e 23 f2 cf bd 1b 8d 01 3c 6a e6 20 bd
       0.21366747 -0.10153606 0.007907177 -0.03928224
0001b0 4a 2f ba bd 06 3a 13 be e4 31 17 be b1 79 4d be
       -0.09091051 -0.14377603 -0.14765126 -0.20065953
0001c0 ae da 42 3c 74 d8 24 be ce 4d 2f 3d c7 a3 89 be
       0.011892958 -0.16098195 0.04279881 -0.26882765
0001d0 1c 91 16 3e 95 52 12 3e 28 f5 82 be 60 83 a1 bc
       0.14703792 0.14289315 -0.25577664 -0.019715965
0001e0 6f 3c f6 bd 3c 1a c0 3d 14 76 02 be 64 19 ea 3d
       -0.120232455 0.09380004 -0.12740356 0.11430624
0001f0 f9 69 24 be c2 cb c3 bd 52 12 5f 3e 8d 05 da bc
       -0.1605605 -0.09560348 0.21784332 -0.026613975
000200 d3 69 0d bd f6 18 0d 3d f4 d5 c8 3a 69 15 09 bd
       -0.03452475 0.034447633 0.0015322552 -0.033467684
000210 9f b3 e6 3d da a6 24 3e 6c b4 b9 3c 6d 78 38 3c
       0.11264729 0.16079274 0.02266904 0.0112591805
000220 06 0b af bd c1 88 29 3e f0 f7 e0 bd d2 81 a8 bd
       -0.085470244 0.16556074 -0.1098479 -0.08227886
000230 2c 50 0c be 40 a5 0a be 86 f3 27 3c 43 9c f6 3c
       -0.13702458 -0.135396 0.010250932 0.030103808
000240 cd 6c 90 bd e1 11 42 be 87 27 0e 3e 92 74 76 bd
       -0.07052002 -0.18952133 0.13882266 -0.060169764
000250 96 ce ea bd dc e5 ec bd 7e df ec bc 6c 16 30 bc
       -0.114651844 -0.1156728 -0.028915163 -0.010747533
000260 28 f3 d1 bd 74 67 2d bd 7d 0b 80 bd 5e d2 79 bd
       -0.102514565 -0.04233499 -0.06252191 -0.060991637
000270 f7 36 df 3d 6a 29 2a 3e b0 1c 86 3d 2d 64 98 bd
       0.108991556 0.1661736 0.065484405 -0.07440982
000280 1c 29 d2 bd 9a cb 42 3d df f1 79 3e aa 23 db bd
       -0.10261747 0.04755745 0.24408673 -0.10700162
000290 fe d0 00 3b 65 c9 c6 3b 04 0a 77 3e 50 44 25 bd
       0.001965582 0.0060664886 0.24124914 -0.04034835
0002a0 b5 22 9b 3d a2 b7 42 3e 9f b6 36 3e 74 2e 10 be
       0.07574979 0.19015363 0.17843102 -0.1408022
0002b0 1c 0c 2b bd 2c 57 43 3d b0 b2 d7 bd f4 c9 bb bd
       -0.041759595 0.047690555 -0.10532129 -0.09169379
0002c0 46 5d 96 3d 03 d9 b7 bc ec 12 8c 3c 30 70 a1 bc
       0.07342009 -0.022442346 0.017098866 -0.019706815
0002d0 d2 e8 8f 3e ba 44 9b be 36 99 c1 bd 85 cf 8a 3e
       0.28107315 -0.30325872 -0.09453051 0.2711145
0002e0 33 9d ae 3c 21 f3 86 bd 4d 95 cb bb 82 28 50 3c
       0.021315193 -0.06589342 -0.0062128664 0.01270497
0002f0 88 fa bc bd 4a 8a 38 ba 13 92 97 3d 89 4a 19 3d
       -0.092274725 -0.00070396496 0.07400908 0.037424598
000300 b5 f5 34 be 21 77 80 be b2 84 1d bd 64 6f e6 bc
       -0.17671855 -0.25090888 -0.038456626 -0.028129287
000310 8b 5f 63 3e 06 c7 76 3d 80 76 a3 3c 6f 47 79 be
       0.22204416 0.060248397 0.019953966 -0.24343656
000320 85 3a 54 be 20 f1 04 bd 2a e7 cd 3c 20 50 2f bd
       -0.20725448 -0.032456517 0.025134642 -0.042801023
000330 30 fe 17 be 70 a1 b0 3e b2 e9 19 bd 5d a7 40 3e
       -0.14843059 0.34498167 -0.037576385 0.18813844
000340 86 0f 41 3e e7 c1 8f 3e f4 4c cc bd 3e e8 fa 3d
       0.18853578 0.28077623 -0.09975615 0.12251328
000350 4c 92 4e bd f6 54 18 3e 57 34 cb bc fa 2f 0c 3e
       -0.05043249 0.1487616 -0.024805231 0.13690177
000360 26 30 df bd bb ff 60 bc ab c1 cd 3d a4 e7 83 bc
       -0.108978555 -0.013732846 0.10046705 -0.016101666
000370 a6 6e ca bd e6 73 67 bd b4 57 d9 bd 10 d5 98 bd
       -0.09884386 -0.056507014 -0.10612431 -0.074625134
000380 32 2b c3 bd 22 77 82 be 4f b7 31 3e 41 0e 09 bd
       -0.09529723 -0.25481516 0.17355083 -0.03346086
000390 c9 b0 af bd 80 b5 56 3d 6d 78 52 bd 91 b3 44 bd
       -0.08578641 0.052419186 -0.05138438 -0.04802281
0003a0 9a cd 81 3d 87 8a 36 be 08 3e 67 3d f8 39 b7 bd
       0.063380435 -0.17826281 0.056455642 -0.089466035
0003b0 8c 97 03 3d 7c 12 0f be 91 81 ba bd 52 bf ea bd
       0.03212695 -0.13971895 -0.09106744 -0.11462273
0003c0 ce a7 94 3c 00 79 43 b9 a4 6b 4c 3d b3 06 04 be
       0.018146422 -0.00018641725 0.04990734 -0.1289318
0003d0 43 7f 2f 3a 19 b8 af bd 60 08 2c be 1d cb 8d bd
       0.00066946837 -0.08580036 -0.1680007 -0.069235064
0003e0 5a 65 dd 3d 7a 26 ce 3d a2 1b ac bd 81 8d 03 bd
       0.10810347 0.100659326 -0.08403708 -0.03211737
0003f0 15 76 82 bd 0b 88 29 be 8a ce 95 bd 81 f7 51 3e
       -0.063701786 -0.16555803 -0.07314785 0.20504571

bias f4 [64]
000000 0a d7 23 3c 0a d7 23 3c 0a d7 23 3c 0a d7 23 3c
       0.01 0.01 0.01 0.01
000010 0a d7 23 3c 0a d7 23 3c 0a d7 23 3c 0a d7 23 3c
       0.01 0.01 0.01 0.01
000020 0a d7 23 3c 0a d7 23 3c 0a d7 23 3c 0a d7 23 3c
       0.01 0.01 0.01 0.01
000030 0a d7 23 3c 0a d7 23 3c 0a d7 23 3c 0a d7 23 3c
       0.01 0.01 0.01 0.01
000040 0a d7 23 3c 0a d7 23 3c 0a d7 23 3c 0a d7 23 3c
       0.01 0.01 0.01 0.01
000050 0a d7 23 3c 0a d7 23 3c 0a d7 23 3c 0a d7 23 3c
       0.01 0.01 0.01 0.01
000060 0a d7 23 3c 0a d7 23 3c 0a d7 23 3c 0a d7 23 3c
       0.01 0.01 0.01 0.01
000070 0a d7 23 3c 0a d7 23 3c 0a d7 23 3c 0a d7 23 3c
       0.01 0.01 0.01 0.01
000080 0a d7 23 3c 0a d7 23 3c 0a d7 23 3c 0a d7 23 3c
       0.01 0.01 0.01 0.01
000090 0a d7 23 3c 0a d7 23 3c 0a d7 23 3c 0a d7 23 3c
       0.01 0.01 0.01 0.01
0000a0 0a d7 23 3c 0a d7 23 3c 0a d7 23 3c 0a d7 23 3c
       0.01 0.01 0.01 0.01
0000b0 0a d7 23 3c 0a d7 23 3c 0a d7 23 3c 0a d7 23 3c
       0.01 0.01 0.01 0.01
0000c0 0a d7 23 3c 0a d7 23 3c 0a d7 23 3c 0a d7 23 3c
       0.01 0.01 0.01 0.01
0000d0 0a d7 23 3c 0a d7 23 3c 0a d7 23 3c 0a d7 23 3c
       0.01 0.01 0.01 0.01
0000e0 0a d7 23 3c 0a d7 23 3c 0a d7 23 3c 0a d7 23 3c
       0.01 0.01 0.01 0.01
0000f0 0a d7 23 3c 0a d7 23 3c 0a d7 23 3c 0a d7 23 3c
       0.01 0.01 0.01 0.01

weight f4 [2, 64]
000000 0b a9 ac 3f 63 fa 40 3f 13 17 f7 3e b2 9f 69 bd
       1.3489088 0.7538206 0.48259792 -0.057037063
000010 1d 3c 18 bf ab ca 45 be f3 5f 00 3f 48 5e e0 3e
       -0.59466726 -0.19315593 0.50146407 0.4382193
000020 ad 21 65 3f eb f1 10 bf 84 90 8e bf aa 13 40 bf
       0.8950451 -0.5661914 -1.1137853 -0.75030005
000030 39 64 84 3f ee a8 a7 3f 8c 9c 84 3e fc 29 7b 3f
       1.0343086 1.3098428 0.25900686 0.9811094
000040 8f 88 1b 3f 15 bb 2e 3d 8a e3 78 3f 4f b5 9c 3e
       0.60755247 0.042658884 0.972222 0.30607077
000050 71 da 94 be ca 5c 11 3f 61 63 45 bf 96 5d 5a 3f
       -0.29072908 0.5678221 -0.77104765 0.8529905
000060 d1 bb 7c 3f 11 3a 92 3f a8 9f fb be 58 c2 72 bf
       0.98724085 1.142397 -0.49145246 -0.94827795
000070 c4 5f 4d 3f db fb 3f bf 88 c5 04 3f ac 62 35 3f
       0.8022425 -0.74993676 0.5186391 0.70853686
000080 19 d3 01 3f 4c 35 d1 3e 9e 89 80 bf 2f ed 90 3f
       0.50712734 0.40860975 -1.0041997 1.1322383
000090 5d d8 b2 3e c4 59 33 3f c8 38 f1 be 9a cc 1e 3f
       0.34930697 0.70058846 -0.47113633 0.6203095
0000a0 c6 b2 8d be a2 81 9f 3f 66 74 12 3f 71 01 1c 3f
       -0.27675456 1.2461436 0.5720886 0.609397
0000b0 7a c9 ad 3f f5 3f 90 3f 10 3a 30 3f f3 d2 45 bf
       1.3577111 1.1269518 0.68838596 -0.7727501
0000c0 41 b1 e4 3e fc 43 8f be 35 6a b0 3e 77 fe 2d bf
       0.44666484 -0.27981555 0.3445603 -0.6796641
0000d0 06 a6 4a 3f 65 a2 cf 3e ad eb 6e be 56 5d 57 3f
       0.7915958 0.40553585 -0.2333209 0.84126794
0000e0 d6 a3 f7 3e c2 69 7e bf 71 b9 eb 3e 8d 31 fd 3e
       0.48367184 -0.99380124 0.46039918 0.49451867
0000f0 fa 0c e9 3e 89 b7 f2 3d b2 02 f5 3e 3c 30 bc 3e
       0.45517713 0.11851413 0.4785362 0.3675555
000100 de a2 8f bf a2 43 73 be fb 93 b2 be d6 ad ce bc
       -1.1221578 -0.23756269 -0.34878525 -0.025229376
000110 66 df 2a 3f a4 23 f1 3e 69 d8 61 bf bd 9d cc be
       0.6674713 0.47097504 -0.8822084 -0.39964095
000120 94 8a 83 bf 85 ca 5c 3f d5 c3 a5 3f 7c 30 40 3f
       -1.0276666 0.8624652 1.2950388 0.7507398
000130 87 07 96 bf ca 0f aa bf fd 52 29 bf c7 d4 9b bf
       -1.1721047 -1.3286068 -0.66142255 -1.217431
000140 80 ee 32 bf 34 19 fa be b7 aa 72 bf 13 73 03 bf
       -0.6989517 -0.48847353 -0.9479174 -0.51347464
000150 62 38 fb 3e 94 83 2d bf b3 99 79 3f d4 04 29 bf
       0.49066454 -0.677789 0.9750015 -0.6602299
000160 aa 3a 6a bf e5 86 97 bf 90 48 0b 3f ab 0f a1 3e
       -0.91495764 -1.1838042 0.54407597 0.31457266
000170 f0 2e 40 bf 26 a1 39 3f 57 7c 11 bf 3d 20 a8 bf
       -0.7507162 0.7251152 -0.5683035 -1.3134838
000180 19 33 e1 be 46 9f dc be a5 f2 79 3f e7 25 59 bf
       -0.43984297 -0.43090266 0.9763587 -0.8482346
000190 09 a8 0c bf f8 e8 46 bf ad e2 3d 3f 15 91 1b bf
       -0.549439 -0.7769923 0.74174005 -0.6076825
0001a0 dc e9 ad 3e e5 75 d0 bf 5e 3d cb be 89 5d bb be
       0.33967483 -1.6285979 -0.39695257 -0.365948
0001b0 cf 3e a9 bf 8e 39 4c bf 5b bf 16 bf 91 7d 71 3e
       -1.3222293 -0.7977532 -0.58885735 0.23583056
0001c0 e2 46 ef be eb a7 10 3f 3b d0 4a be c8 93 ba 3e
       -0.46733767 0.5650622 -0.19805996 0.36440873
0001d0 2c 1d 4e bf 10 3b da be 6c d8 de 3e a1 a2 0d bf
       -0.8051326 -0.42623186 0.43524492 -0.55326277
0001e0 1c 89 0c bf 16 69 0a 3f 6c 05 14 bf 35 e6 23 be
       -0.5489671 0.540666 -0.57820773 -0.16005786
0001f0 cf bf 46 be 7e f6 a9 be 5d 66 02 bf 1a 5a 46 bf
       -0.19409107 -0.3319587 -0.50937444 -0.77481234

bias f4 [2]
000000 17 96 69 3f f1 77 64 bf
       0.91244644 -0.89245516
